{"format": "graph-model", "generatedBy": "2.10.0", "convertedBy": "TensorFlow.js Converter v3.18.0", "signature": {"inputs": {"image": {"name": "input_hide:0", "dtype": "DT_FLOAT", "tensorShape": {"dim": [{"size": "-1"}, {"size": "400"}, {"size": "400"}, {"size": "3"}]}}, "secret": {"name": "input_prep:0", "dtype": "DT_FLOAT", "tensorShape": {"dim": [{"size": "-1"}, {"size": "100"}]}}}, "outputs": {"stega_stamp_encoder_1/conv2d_11/BiasAdd:0": {"name": "stega_stamp_encoder_1/conv2d_11/BiasAdd:0", "dtype": "DT_FLOAT", "tensorShape": {"dim": [{"size": "-1"}, {"size": "400"}, {"size": "400"}, {"size": "3"}]}}, "decoded": {"name": "Round:0", "dtype": "DT_FLOAT", "tensorShape": {"dim": [{"size": "-1"}, {"size": "100"}]}}, "clip_by_value_34:0": {"name": "clip_by_value_34:0", "dtype": "DT_FLOAT", "tensorShape": {"dim": [{"size": "-1"}, {"size": "400"}, {"size": "400"}, {"size": "3"}]}}}}, "modelTopology": {"node": [{"name": "stega_stamp_decoder/ExpandDims_1/dim", "op": "Const", "attr": {"value": {"tensor": {"dtype": "DT_INT32", "tensorShape": {}}}, "dtype": {"type": "DT_INT32"}}}, {"name": "stega_stamp_decoder/range/start", "op": "Const", "attr": {"value": {"tensor": {"dtype": "DT_INT32", "tensorShape": {}}}, "dtype": {"type": "DT_INT32"}}}, {"name": "stega_stamp_decoder/range/delta", "op": "Const", "attr": {"value": {"tensor": {"dtype": "DT_INT32", "tensorShape": {}}}, "dtype": {"type": "DT_INT32"}}}, {"name": "stega_stamp_decoder/strided_slice_8/stack", "op": "Const", "attr": {"value": {"tensor": {"dtype": "DT_INT32", "tensorShape": {"dim": [{"size": "1"}]}}}, "dtype": {"type": "DT_INT32"}}}, {"name": "stega_stamp_decoder/strided_slice_8/stack_1", "op": "Const", "attr": {"value": {"tensor": {"dtype": "DT_INT32", "tensorShape": {"dim": [{"size": "1"}]}}}, "dtype": {"type": "DT_INT32"}}}, {"name": "stega_stamp_decoder/strided_slice_8/stack_2", "op": "Const", "attr": {"value": {"tensor": {"dtype": "DT_INT32", "tensorShape": {"dim": [{"size": "1"}]}}}, "dtype": {"type": "DT_INT32"}}}, {"name": "stega_stamp_decoder/Reshape_4/shape/1", "op": "Const", "attr": {"value": {"tensor": {"dtype": "DT_INT32", "tensorShape": {}}}, "dtype": {"type": "DT_INT32"}}}, {"name": "stega_stamp_decoder/Reshape_4/shape/2", "op": "Const", "attr": {"value": {"tensor": {"dtype": "DT_INT32", "tensorShape": {}}}, "dtype": {"type": "DT_INT32"}}}, {"name": "stega_stamp_decoder/Tile_1/multiples/0", "op": "Const", "attr": {"value": {"tensor": {"dtype": "DT_INT32", "tensorShape": {}}}, "dtype": {"type": "DT_INT32"}}}, {"name": "stega_stamp_decoder/strided_slice_9/stack", "op": "Const", "attr": {"value": {"tensor": {"dtype": "DT_INT32", "tensorShape": {"dim": [{"size": "1"}]}}}, "dtype": {"type": "DT_INT32"}}}, {"name": "stega_stamp_decoder/strided_slice_9/stack_1", "op": "Const", "attr": {"value": {"tensor": {"dtype": "DT_INT32", "tensorShape": {"dim": [{"size": "1"}]}}}, "dtype": {"type": "DT_INT32"}}}, {"name": "stega_stamp_decoder/strided_slice_9/stack_2", "op": "Const", "attr": {"value": {"tensor": {"dtype": "DT_INT32", "tensorShape": {"dim": [{"size": "1"}]}}}, "dtype": {"type": "DT_INT32"}}}, {"name": "stega_stamp_decoder/strided_slice_10/stack", "op": "Const", "attr": {"value": {"tensor": {"dtype": "DT_INT32", "tensorShape": {"dim": [{"size": "1"}]}}}, "dtype": {"type": "DT_INT32"}}}, {"name": "stega_stamp_decoder/strided_slice_10/stack_1", "op": "Const", "attr": {"value": {"tensor": {"dtype": "DT_INT32", "tensorShape": {"dim": [{"size": "1"}]}}}, "dtype": {"type": "DT_INT32"}}}, {"name": "stega_stamp_decoder/strided_slice_10/stack_2", "op": "Const", "attr": {"value": {"tensor": {"dtype": "DT_INT32", "tensorShape": {"dim": [{"size": "1"}]}}}, "dtype": {"type": "DT_INT32"}}}, {"name": "stega_stamp_decoder/ExpandDims_2/dim", "op": "Const", "attr": {"value": {"tensor": {"dtype": "DT_INT32", "tensorShape": {}}}, "dtype": {"type": "DT_INT32"}}}, {"name": "stega_stamp_decoder/range_1/start", "op": "Const", "attr": {"value": {"tensor": {"dtype": "DT_INT32", "tensorShape": {}}}, "dtype": {"type": "DT_INT32"}}}, {"name": "stega_stamp_decoder/range_1/delta", "op": "Const", "attr": {"value": {"tensor": {"dtype": "DT_INT32", "tensorShape": {}}}, "dtype": {"type": "DT_INT32"}}}, {"name": "stega_stamp_decoder/strided_slice_11/stack", "op": "Const", "attr": {"value": {"tensor": {"dtype": "DT_INT32", "tensorShape": {"dim": [{"size": "1"}]}}}, "dtype": {"type": "DT_INT32"}}}, {"name": "stega_stamp_decoder/strided_slice_11/stack_1", "op": "Const", "attr": {"value": {"tensor": {"dtype": "DT_INT32", "tensorShape": {"dim": [{"size": "1"}]}}}, "dtype": {"type": "DT_INT32"}}}, {"name": "stega_stamp_decoder/strided_slice_11/stack_2", "op": "Const", "attr": {"value": {"tensor": {"dtype": "DT_INT32", "tensorShape": {"dim": [{"size": "1"}]}}}, "dtype": {"type": "DT_INT32"}}}, {"name": "stega_stamp_decoder/Reshape_5/shape/1", "op": "Const", "attr": {"value": {"tensor": {"dtype": "DT_INT32", "tensorShape": {}}}, "dtype": {"type": "DT_INT32"}}}, {"name": "stega_stamp_decoder/Reshape_5/shape/2", "op": "Const", "attr": {"value": {"tensor": {"dtype": "DT_INT32", "tensorShape": {}}}, "dtype": {"type": "DT_INT32"}}}, {"name": "stega_stamp_decoder/Tile_2/multiples/0", "op": "Const", "attr": {"value": {"tensor": {"dtype": "DT_INT32", "tensorShape": {}}}, "dtype": {"type": "DT_INT32"}}}, {"name": "stega_stamp_decoder/strided_slice_12/stack", "op": "Const", "attr": {"value": {"tensor": {"dtype": "DT_INT32", "tensorShape": {"dim": [{"size": "1"}]}}}, "dtype": {"type": "DT_INT32"}}}, {"name": "stega_stamp_decoder/strided_slice_12/stack_1", "op": "Const", "attr": {"value": {"tensor": {"dtype": "DT_INT32", "tensorShape": {"dim": [{"size": "1"}]}}}, "dtype": {"type": "DT_INT32"}}}, {"name": "stega_stamp_decoder/strided_slice_12/stack_2", "op": "Const", "attr": {"value": {"tensor": {"dtype": "DT_INT32", "tensorShape": {"dim": [{"size": "1"}]}}}, "dtype": {"type": "DT_INT32"}}}, {"name": "stega_stamp_decoder/strided_slice_13/stack", "op": "Const", "attr": {"value": {"tensor": {"dtype": "DT_INT32", "tensorShape": {"dim": [{"size": "1"}]}}}, "dtype": {"type": "DT_INT32"}}}, {"name": "stega_stamp_decoder/strided_slice_13/stack_1", "op": "Const", "attr": {"value": {"tensor": {"dtype": "DT_INT32", "tensorShape": {"dim": [{"size": "1"}]}}}, "dtype": {"type": "DT_INT32"}}}, {"name": "stega_stamp_decoder/strided_slice_13/stack_2", "op": "Const", "attr": {"value": {"tensor": {"dtype": "DT_INT32", "tensorShape": {"dim": [{"size": "1"}]}}}, "dtype": {"type": "DT_INT32"}}}, {"name": "stega_stamp_decoder/ExpandDims_3/dim", "op": "Const", "attr": {"value": {"tensor": {"dtype": "DT_INT32", "tensorShape": {}}}, "dtype": {"type": "DT_INT32"}}}, {"name": "stega_stamp_decoder/range_2/start", "op": "Const", "attr": {"value": {"tensor": {"dtype": "DT_INT32", "tensorShape": {}}}, "dtype": {"type": "DT_INT32"}}}, {"name": "stega_stamp_decoder/range_2/delta", "op": "Const", "attr": {"value": {"tensor": {"dtype": "DT_INT32", "tensorShape": {}}}, "dtype": {"type": "DT_INT32"}}}, {"name": "stega_stamp_decoder/strided_slice_14/stack", "op": "Const", "attr": {"value": {"tensor": {"dtype": "DT_INT32", "tensorShape": {"dim": [{"size": "1"}]}}}, "dtype": {"type": "DT_INT32"}}}, {"name": "stega_stamp_decoder/strided_slice_14/stack_1", "op": "Const", "attr": {"value": {"tensor": {"dtype": "DT_INT32", "tensorShape": {"dim": [{"size": "1"}]}}}, "dtype": {"type": "DT_INT32"}}}, {"name": "stega_stamp_decoder/strided_slice_14/stack_2", "op": "Const", "attr": {"value": {"tensor": {"dtype": "DT_INT32", "tensorShape": {"dim": [{"size": "1"}]}}}, "dtype": {"type": "DT_INT32"}}}, {"name": "stega_stamp_decoder/Reshape_6/shape/1", "op": "Const", "attr": {"value": {"tensor": {"dtype": "DT_INT32", "tensorShape": {}}}, "dtype": {"type": "DT_INT32"}}}, {"name": "stega_stamp_decoder/Reshape_6/shape/2", "op": "Const", "attr": {"value": {"tensor": {"dtype": "DT_INT32", "tensorShape": {}}}, "dtype": {"type": "DT_INT32"}}}, {"name": "stega_stamp_decoder/Tile_3/multiples/0", "op": "Const", "attr": {"value": {"tensor": {"dtype": "DT_INT32", "tensorShape": {}}}, "dtype": {"type": "DT_INT32"}}}, {"name": "stega_stamp_decoder/strided_slice_15/stack", "op": "Const", "attr": {"value": {"tensor": {"dtype": "DT_INT32", "tensorShape": {"dim": [{"size": "1"}]}}}, "dtype": {"type": "DT_INT32"}}}, {"name": "stega_stamp_decoder/strided_slice_15/stack_1", "op": "Const", "attr": {"value": {"tensor": {"dtype": "DT_INT32", "tensorShape": {"dim": [{"size": "1"}]}}}, "dtype": {"type": "DT_INT32"}}}, {"name": "stega_stamp_decoder/strided_slice_15/stack_2", "op": "Const", "attr": {"value": {"tensor": {"dtype": "DT_INT32", "tensorShape": {"dim": [{"size": "1"}]}}}, "dtype": {"type": "DT_INT32"}}}, {"name": "stega_stamp_decoder/strided_slice_16/stack", "op": "Const", "attr": {"value": {"tensor": {"dtype": "DT_INT32", "tensorShape": {"dim": [{"size": "1"}]}}}, "dtype": {"type": "DT_INT32"}}}, {"name": "stega_stamp_decoder/strided_slice_16/stack_1", "op": "Const", "attr": {"value": {"tensor": {"dtype": "DT_INT32", "tensorShape": {"dim": [{"size": "1"}]}}}, "dtype": {"type": "DT_INT32"}}}, {"name": "stega_stamp_decoder/strided_slice_16/stack_2", "op": "Const", "attr": {"value": {"tensor": {"dtype": "DT_INT32", "tensorShape": {"dim": [{"size": "1"}]}}}, "dtype": {"type": "DT_INT32"}}}, {"name": "stega_stamp_decoder/ExpandDims_4/dim", "op": "Const", "attr": {"value": {"tensor": {"dtype": "DT_INT32", "tensorShape": {}}}, "dtype": {"type": "DT_INT32"}}}, {"name": "stega_stamp_decoder/range_3/start", "op": "Const", "attr": {"value": {"tensor": {"dtype": "DT_INT32", "tensorShape": {}}}, "dtype": {"type": "DT_INT32"}}}, {"name": "stega_stamp_decoder/range_3/delta", "op": "Const", "attr": {"value": {"tensor": {"dtype": "DT_INT32", "tensorShape": {}}}, "dtype": {"type": "DT_INT32"}}}, {"name": "stega_stamp_decoder/strided_slice_17/stack", "op": "Const", "attr": {"value": {"tensor": {"dtype": "DT_INT32", "tensorShape": {"dim": [{"size": "1"}]}}}, "dtype": {"type": "DT_INT32"}}}, {"name": "stega_stamp_decoder/strided_slice_17/stack_1", "op": "Const", "attr": {"value": {"tensor": {"dtype": "DT_INT32", "tensorShape": {"dim": [{"size": "1"}]}}}, "dtype": {"type": "DT_INT32"}}}, {"name": "stega_stamp_decoder/strided_slice_17/stack_2", "op": "Const", "attr": {"value": {"tensor": {"dtype": "DT_INT32", "tensorShape": {"dim": [{"size": "1"}]}}}, "dtype": {"type": "DT_INT32"}}}, {"name": "stega_stamp_decoder/Reshape_7/shape/1", "op": "Const", "attr": {"value": {"tensor": {"dtype": "DT_INT32", "tensorShape": {}}}, "dtype": {"type": "DT_INT32"}}}, {"name": "stega_stamp_decoder/Reshape_7/shape/2", "op": "Const", "attr": {"value": {"tensor": {"dtype": "DT_INT32", "tensorShape": {}}}, "dtype": {"type": "DT_INT32"}}}, {"name": "stega_stamp_decoder/Tile_4/multiples/0", "op": "Const", "attr": {"value": {"tensor": {"dtype": "DT_INT32", "tensorShape": {}}}, "dtype": {"type": "DT_INT32"}}}, {"name": "stega_stamp_decoder/strided_slice_18/stack", "op": "Const", "attr": {"value": {"tensor": {"dtype": "DT_INT32", "tensorShape": {"dim": [{"size": "1"}]}}}, "dtype": {"type": "DT_INT32"}}}, {"name": "stega_stamp_decoder/strided_slice_18/stack_1", "op": "Const", "attr": {"value": {"tensor": {"dtype": "DT_INT32", "tensorShape": {"dim": [{"size": "1"}]}}}, "dtype": {"type": "DT_INT32"}}}, {"name": "stega_stamp_decoder/strided_slice_18/stack_2", "op": "Const", "attr": {"value": {"tensor": {"dtype": "DT_INT32", "tensorShape": {"dim": [{"size": "1"}]}}}, "dtype": {"type": "DT_INT32"}}}, {"name": "stega_stamp_decoder/strided_slice_19/stack", "op": "Const", "attr": {"value": {"tensor": {"dtype": "DT_INT32", "tensorShape": {"dim": [{"size": "1"}]}}}, "dtype": {"type": "DT_INT32"}}}, {"name": "stega_stamp_decoder/strided_slice_19/stack_1", "op": "Const", "attr": {"value": {"tensor": {"dtype": "DT_INT32", "tensorShape": {"dim": [{"size": "1"}]}}}, "dtype": {"type": "DT_INT32"}}}, {"name": "stega_stamp_decoder/strided_slice_19/stack_2", "op": "Const", "attr": {"value": {"tensor": {"dtype": "DT_INT32", "tensorShape": {"dim": [{"size": "1"}]}}}, "dtype": {"type": "DT_INT32"}}}, {"name": "stega_stamp_decoder/mul_3/x", "op": "Const", "attr": {"value": {"tensor": {"dtype": "DT_FLOAT", "tensorShape": {}}}, "dtype": {"type": "DT_FLOAT"}}}, {"name": "stega_stamp_decoder/sub_4/y", "op": "Const", "attr": {"value": {"tensor": {"dtype": "DT_INT32", "tensorShape": {}}}, "dtype": {"type": "DT_INT32"}}}, {"name": "stega_stamp_decoder/strided_slice_5/stack", "op": "Const", "attr": {"value": {"tensor": {"dtype": "DT_INT32", "tensorShape": {"dim": [{"size": "4"}]}}}, "dtype": {"type": "DT_INT32"}}}, {"name": "stega_stamp_decoder/strided_slice_5/stack_1", "op": "Const", "attr": {"value": {"tensor": {"dtype": "DT_INT32", "tensorShape": {"dim": [{"size": "4"}]}}}, "dtype": {"type": "DT_INT32"}}}, {"name": "stega_stamp_decoder/strided_slice_5/stack_2", "op": "Const", "attr": {"value": {"tensor": {"dtype": "DT_INT32", "tensorShape": {"dim": [{"size": "4"}]}}}, "dtype": {"type": "DT_INT32"}}}, {"name": "stega_stamp_decoder/add_2/y", "op": "Const", "attr": {"value": {"tensor": {"dtype": "DT_FLOAT", "tensorShape": {}}}, "dtype": {"type": "DT_FLOAT"}}}, {"name": "stega_stamp_decoder/add_4/y", "op": "Const", "attr": {"value": {"tensor": {"dtype": "DT_INT32", "tensorShape": {}}}, "dtype": {"type": "DT_INT32"}}}, {"name": "stega_stamp_decoder/strided_slice_6/stack", "op": "Const", "attr": {"value": {"tensor": {"dtype": "DT_INT32", "tensorShape": {"dim": [{"size": "1"}]}}}, "dtype": {"type": "DT_INT32"}}}, {"name": "stega_stamp_decoder/strided_slice_6/stack_1", "op": "Const", "attr": {"value": {"tensor": {"dtype": "DT_INT32", "tensorShape": {"dim": [{"size": "1"}]}}}, "dtype": {"type": "DT_INT32"}}}, {"name": "stega_stamp_decoder/strided_slice_6/stack_2", "op": "Const", "attr": {"value": {"tensor": {"dtype": "DT_INT32", "tensorShape": {"dim": [{"size": "1"}]}}}, "dtype": {"type": "DT_INT32"}}}, {"name": "stega_stamp_decoder/sub_1/y", "op": "Const", "attr": {"value": {"tensor": {"dtype": "DT_INT32", "tensorShape": {}}}, "dtype": {"type": "DT_INT32"}}}, {"name": "stega_stamp_decoder/mul_1/x", "op": "Const", "attr": {"value": {"tensor": {"dtype": "DT_FLOAT", "tensorShape": {}}}, "dtype": {"type": "DT_FLOAT"}}}, {"name": "stega_stamp_decoder/sub_3/y", "op": "Const", "attr": {"value": {"tensor": {"dtype": "DT_INT32", "tensorShape": {}}}, "dtype": {"type": "DT_INT32"}}}, {"name": "stega_stamp_decoder/ExpandDims", "op": "Const", "attr": {"value": {"tensor": {"dtype": "DT_FLOAT", "tensorShape": {"dim": [{"size": "1"}, {"size": "3"}, {"size": "160000"}]}}}, "dtype": {"type": "DT_FLOAT"}}}, {"name": "stega_stamp_decoder/stack_1/1", "op": "Const", "attr": {"value": {"tensor": {"dtype": "DT_INT32", "tensorShape": {}}}, "dtype": {"type": "DT_INT32"}}}, {"name": "stega_stamp_decoder/stack_1/2", "op": "Const", "attr": {"value": {"tensor": {"dtype": "DT_INT32", "tensorShape": {}}}, "dtype": {"type": "DT_INT32"}}}, {"name": "cond_3/stega_stamp_decoder/sequential_1/conv2d_12/kernel", "op": "Const", "attr": {"value": {"tensor": {"dtype": "DT_FLOAT", "tensorShape": {"dim": [{"size": "3"}, {"size": "3"}, {"size": "3"}, {"size": "32"}]}}}, "dtype": {"type": "DT_FLOAT"}}}, {"name": "cond_3/stega_stamp_decoder/sequential_1/conv2d_13/kernel", "op": "Const", "attr": {"value": {"tensor": {"dtype": "DT_FLOAT", "tensorShape": {"dim": [{"size": "3"}, {"size": "3"}, {"size": "32"}, {"size": "64"}]}}}, "dtype": {"type": "DT_FLOAT"}}}, {"name": "cond_3/stega_stamp_decoder/sequential_1/conv2d_14/kernel", "op": "Const", "attr": {"value": {"tensor": {"dtype": "DT_FLOAT", "tensorShape": {"dim": [{"size": "3"}, {"size": "3"}, {"size": "64"}, {"size": "128"}]}}}, "dtype": {"type": "DT_FLOAT"}}}, {"name": "stega_stamp_decoder/sequential_1/flatten/Const", "op": "Const", "attr": {"value": {"tensor": {"dtype": "DT_INT32", "tensorShape": {"dim": [{"size": "2"}]}}}, "dtype": {"type": "DT_INT32"}}}, {"name": "cond_3/stega_stamp_decoder/sequential_1/dense_1/kernel", "op": "Const", "attr": {"value": {"tensor": {"dtype": "DT_FLOAT", "tensorShape": {"dim": [{"size": "320000"}, {"size": "128"}]}}}, "dtype": {"type": "DT_FLOAT"}}}, {"name": "W_fc1", "op": "Const", "attr": {"value": {"tensor": {"dtype": "DT_FLOAT", "tensorShape": {"dim": [{"size": "128"}, {"size": "6"}]}}}, "dtype": {"type": "DT_FLOAT"}}}, {"name": "b_fc1", "op": "Const", "attr": {"value": {"tensor": {"dtype": "DT_FLOAT", "tensorShape": {"dim": [{"size": "6"}]}}}, "dtype": {"type": "DT_FLOAT"}}}, {"name": "stega_stamp_decoder/strided_slice/stack", "op": "Const", "attr": {"value": {"tensor": {"dtype": "DT_INT32", "tensorShape": {"dim": [{"size": "1"}]}}}, "dtype": {"type": "DT_INT32"}}}, {"name": "stega_stamp_decoder/strided_slice/stack_1", "op": "Const", "attr": {"value": {"tensor": {"dtype": "DT_INT32", "tensorShape": {"dim": [{"size": "1"}]}}}, "dtype": {"type": "DT_INT32"}}}, {"name": "stega_stamp_decoder/strided_slice/stack_2", "op": "Const", "attr": {"value": {"tensor": {"dtype": "DT_INT32", "tensorShape": {"dim": [{"size": "1"}]}}}, "dtype": {"type": "DT_INT32"}}}, {"name": "stega_stamp_decoder/Reshape/shape/1", "op": "Const", "attr": {"value": {"tensor": {"dtype": "DT_INT32", "tensorShape": {}}}, "dtype": {"type": "DT_INT32"}}}, {"name": "stega_stamp_decoder/Reshape/shape/2", "op": "Const", "attr": {"value": {"tensor": {"dtype": "DT_INT32", "tensorShape": {}}}, "dtype": {"type": "DT_INT32"}}}, {"name": "stega_stamp_decoder/strided_slice_3/stack", "op": "Const", "attr": {"value": {"tensor": {"dtype": "DT_INT32", "tensorShape": {"dim": [{"size": "1"}]}}}, "dtype": {"type": "DT_INT32"}}}, {"name": "stega_stamp_decoder/strided_slice_3/stack_1", "op": "Const", "attr": {"value": {"tensor": {"dtype": "DT_INT32", "tensorShape": {"dim": [{"size": "1"}]}}}, "dtype": {"type": "DT_INT32"}}}, {"name": "stega_stamp_decoder/strided_slice_3/stack_2", "op": "Const", "attr": {"value": {"tensor": {"dtype": "DT_INT32", "tensorShape": {"dim": [{"size": "1"}]}}}, "dtype": {"type": "DT_INT32"}}}, {"name": "stega_stamp_decoder/Reshape_3/shape/1", "op": "Const", "attr": {"value": {"tensor": {"dtype": "DT_INT32", "tensorShape": {}}}, "dtype": {"type": "DT_INT32"}}}, {"name": "stega_stamp_decoder/Reshape_3/shape/2", "op": "Const", "attr": {"value": {"tensor": {"dtype": "DT_INT32", "tensorShape": {}}}, "dtype": {"type": "DT_INT32"}}}, {"name": "stega_stamp_decoder/Reshape_3/shape/3", "op": "Const", "attr": {"value": {"tensor": {"dtype": "DT_INT32", "tensorShape": {}}}, "dtype": {"type": "DT_INT32"}}}, {"name": "stega_stamp_decoder/strided_slice_4/stack", "op": "Const", "attr": {"value": {"tensor": {"dtype": "DT_INT32", "tensorShape": {"dim": [{"size": "4"}]}}}, "dtype": {"type": "DT_INT32"}}}, {"name": "stega_stamp_decoder/strided_slice_4/stack_1", "op": "Const", "attr": {"value": {"tensor": {"dtype": "DT_INT32", "tensorShape": {"dim": [{"size": "4"}]}}}, "dtype": {"type": "DT_INT32"}}}, {"name": "stega_stamp_decoder/strided_slice_4/stack_2", "op": "Const", "attr": {"value": {"tensor": {"dtype": "DT_INT32", "tensorShape": {"dim": [{"size": "4"}]}}}, "dtype": {"type": "DT_INT32"}}}, {"name": "stega_stamp_decoder/add_1/y", "op": "Const", "attr": {"value": {"tensor": {"dtype": "DT_FLOAT", "tensorShape": {}}}, "dtype": {"type": "DT_FLOAT"}}}, {"name": "stega_stamp_decoder/add_3/y", "op": "Const", "attr": {"value": {"tensor": {"dtype": "DT_INT32", "tensorShape": {}}}, "dtype": {"type": "DT_INT32"}}}, {"name": "stega_stamp_decoder/sub/y", "op": "Const", "attr": {"value": {"tensor": {"dtype": "DT_FLOAT", "tensorShape": {}}}, "dtype": {"type": "DT_FLOAT"}}}, {"name": "stega_stamp_decoder/strided_slice_7/stack", "op": "Const", "attr": {"value": {"tensor": {"dtype": "DT_INT32", "tensorShape": {"dim": [{"size": "1"}]}}}, "dtype": {"type": "DT_INT32"}}}, {"name": "stega_stamp_decoder/strided_slice_7/stack_1", "op": "Const", "attr": {"value": {"tensor": {"dtype": "DT_INT32", "tensorShape": {"dim": [{"size": "1"}]}}}, "dtype": {"type": "DT_INT32"}}}, {"name": "stega_stamp_decoder/strided_slice_7/stack_2", "op": "Const", "attr": {"value": {"tensor": {"dtype": "DT_INT32", "tensorShape": {"dim": [{"size": "1"}]}}}, "dtype": {"type": "DT_INT32"}}}, {"name": "stega_stamp_decoder/sub_2/y", "op": "Const", "attr": {"value": {"tensor": {"dtype": "DT_INT32", "tensorShape": {}}}, "dtype": {"type": "DT_INT32"}}}, {"name": "stega_stamp_decoder/zeros", "op": "Const", "attr": {"value": {"tensor": {"dtype": "DT_INT32", "tensorShape": {}}}, "dtype": {"type": "DT_INT32"}}}, {"name": "cond_3/stega_stamp_decoder/sequential_2/conv2d_15/kernel", "op": "Const", "attr": {"value": {"tensor": {"dtype": "DT_FLOAT", "tensorShape": {"dim": [{"size": "3"}, {"size": "3"}, {"size": "3"}, {"size": "32"}]}}}, "dtype": {"type": "DT_FLOAT"}}}, {"name": "cond_3/stega_stamp_decoder/sequential_2/conv2d_15/bias", "op": "Const", "attr": {"value": {"tensor": {"dtype": "DT_FLOAT", "tensorShape": {"dim": [{"size": "32"}]}}}, "dtype": {"type": "DT_FLOAT"}}}, {"name": "cond_3/stega_stamp_decoder/sequential_2/conv2d_16/kernel", "op": "Const", "attr": {"value": {"tensor": {"dtype": "DT_FLOAT", "tensorShape": {"dim": [{"size": "3"}, {"size": "3"}, {"size": "32"}, {"size": "32"}]}}}, "dtype": {"type": "DT_FLOAT"}}}, {"name": "cond_3/stega_stamp_decoder/sequential_2/conv2d_16/bias", "op": "Const", "attr": {"value": {"tensor": {"dtype": "DT_FLOAT", "tensorShape": {"dim": [{"size": "32"}]}}}, "dtype": {"type": "DT_FLOAT"}}}, {"name": "cond_3/stega_stamp_decoder/sequential_2/conv2d_17/kernel", "op": "Const", "attr": {"value": {"tensor": {"dtype": "DT_FLOAT", "tensorShape": {"dim": [{"size": "3"}, {"size": "3"}, {"size": "32"}, {"size": "64"}]}}}, "dtype": {"type": "DT_FLOAT"}}}, {"name": "cond_3/stega_stamp_decoder/sequential_2/conv2d_17/bias", "op": "Const", "attr": {"value": {"tensor": {"dtype": "DT_FLOAT", "tensorShape": {"dim": [{"size": "64"}]}}}, "dtype": {"type": "DT_FLOAT"}}}, {"name": "cond_3/stega_stamp_decoder/sequential_2/conv2d_18/kernel", "op": "Const", "attr": {"value": {"tensor": {"dtype": "DT_FLOAT", "tensorShape": {"dim": [{"size": "3"}, {"size": "3"}, {"size": "64"}, {"size": "64"}]}}}, "dtype": {"type": "DT_FLOAT"}}}, {"name": "cond_3/stega_stamp_decoder/sequential_2/conv2d_18/bias", "op": "Const", "attr": {"value": {"tensor": {"dtype": "DT_FLOAT", "tensorShape": {"dim": [{"size": "64"}]}}}, "dtype": {"type": "DT_FLOAT"}}}, {"name": "cond_3/stega_stamp_decoder/sequential_2/conv2d_19/kernel", "op": "Const", "attr": {"value": {"tensor": {"dtype": "DT_FLOAT", "tensorShape": {"dim": [{"size": "3"}, {"size": "3"}, {"size": "64"}, {"size": "64"}]}}}, "dtype": {"type": "DT_FLOAT"}}}, {"name": "cond_3/stega_stamp_decoder/sequential_2/conv2d_19/bias", "op": "Const", "attr": {"value": {"tensor": {"dtype": "DT_FLOAT", "tensorShape": {"dim": [{"size": "64"}]}}}, "dtype": {"type": "DT_FLOAT"}}}, {"name": "cond_3/stega_stamp_decoder/sequential_2/conv2d_20/kernel", "op": "Const", "attr": {"value": {"tensor": {"dtype": "DT_FLOAT", "tensorShape": {"dim": [{"size": "3"}, {"size": "3"}, {"size": "64"}, {"size": "128"}]}}}, "dtype": {"type": "DT_FLOAT"}}}, {"name": "cond_3/stega_stamp_decoder/sequential_2/conv2d_20/bias", "op": "Const", "attr": {"value": {"tensor": {"dtype": "DT_FLOAT", "tensorShape": {"dim": [{"size": "128"}]}}}, "dtype": {"type": "DT_FLOAT"}}}, {"name": "cond_3/stega_stamp_decoder/sequential_2/conv2d_21/kernel", "op": "Const", "attr": {"value": {"tensor": {"dtype": "DT_FLOAT", "tensorShape": {"dim": [{"size": "3"}, {"size": "3"}, {"size": "128"}, {"size": "128"}]}}}, "dtype": {"type": "DT_FLOAT"}}}, {"name": "cond_3/stega_stamp_decoder/sequential_2/conv2d_21/bias", "op": "Const", "attr": {"value": {"tensor": {"dtype": "DT_FLOAT", "tensorShape": {"dim": [{"size": "128"}]}}}, "dtype": {"type": "DT_FLOAT"}}}, {"name": "stega_stamp_decoder/sequential_2/flatten_1/Const", "op": "Const", "attr": {"value": {"tensor": {"dtype": "DT_INT32", "tensorShape": {"dim": [{"size": "2"}]}}}, "dtype": {"type": "DT_INT32"}}}, {"name": "cond_3/stega_stamp_decoder/sequential_2/dense_2/kernel", "op": "Const", "attr": {"value": {"tensor": {"dtype": "DT_FLOAT", "tensorShape": {"dim": [{"size": "21632"}, {"size": "512"}]}}}, "dtype": {"type": "DT_FLOAT"}}}, {"name": "cond_3/stega_stamp_decoder/sequential_2/dense_2/bias", "op": "Const", "attr": {"value": {"tensor": {"dtype": "DT_FLOAT", "tensorShape": {"dim": [{"size": "512"}]}}}, "dtype": {"type": "DT_FLOAT"}}}, {"name": "cond_3/stega_stamp_decoder/sequential_2/dense_3/kernel", "op": "Const", "attr": {"value": {"tensor": {"dtype": "DT_FLOAT", "tensorShape": {"dim": [{"size": "512"}, {"size": "100"}]}}}, "dtype": {"type": "DT_FLOAT"}}}, {"name": "cond_3/stega_stamp_decoder/sequential_2/dense_3/bias", "op": "Const", "attr": {"value": {"tensor": {"dtype": "DT_FLOAT", "tensorShape": {"dim": [{"size": "100"}]}}}, "dtype": {"type": "DT_FLOAT"}}}, {"name": "clip_by_value_34/Minimum/y", "op": "Const", "attr": {"value": {"tensor": {"dtype": "DT_FLOAT", "tensorShape": {}}}, "dtype": {"type": "DT_FLOAT"}}}, {"name": "clip_by_value_34/y", "op": "Const", "attr": {"value": {"tensor": {"dtype": "DT_FLOAT", "tensorShape": {}}}, "dtype": {"type": "DT_FLOAT"}}}, {"name": "stega_stamp_encoder_1/conv2d_transpose_5/strided_slice/stack", "op": "Const", "attr": {"value": {"tensor": {"dtype": "DT_INT32", "tensorShape": {"dim": [{"size": "1"}]}}}, "dtype": {"type": "DT_INT32"}}}, {"name": "stega_stamp_encoder_1/conv2d_transpose_5/strided_slice/stack_1", "op": "Const", "attr": {"value": {"tensor": {"dtype": "DT_INT32", "tensorShape": {"dim": [{"size": "1"}]}}}, "dtype": {"type": "DT_INT32"}}}, {"name": "stega_stamp_encoder_1/conv2d_transpose_5/strided_slice/stack_2", "op": "Const", "attr": {"value": {"tensor": {"dtype": "DT_INT32", "tensorShape": {"dim": [{"size": "1"}]}}}, "dtype": {"type": "DT_INT32"}}}, {"name": "stega_stamp_encoder_1/conv2d_transpose_5/stack/1", "op": "Const", "attr": {"value": {"tensor": {"dtype": "DT_INT32", "tensorShape": {}}}, "dtype": {"type": "DT_INT32"}}}, {"name": "stega_stamp_encoder_1/conv2d_transpose_5/stack/2", "op": "Const", "attr": {"value": {"tensor": {"dtype": "DT_INT32", "tensorShape": {}}}, "dtype": {"type": "DT_INT32"}}}, {"name": "stega_stamp_encoder_1/conv2d_transpose_5/stack/3", "op": "Const", "attr": {"value": {"tensor": {"dtype": "DT_INT32", "tensorShape": {}}}, "dtype": {"type": "DT_INT32"}}}, {"name": "stega_stamp_encoder/conv2d_transpose_5/kernel", "op": "Const", "attr": {"value": {"tensor": {"dtype": "DT_FLOAT", "tensorShape": {"dim": [{"size": "3"}, {"size": "3"}, {"size": "32"}, {"size": "96"}]}}}, "dtype": {"type": "DT_FLOAT"}}}, {"name": "stega_stamp_encoder_1/conv2d_transpose_4/strided_slice/stack", "op": "Const", "attr": {"value": {"tensor": {"dtype": "DT_INT32", "tensorShape": {"dim": [{"size": "1"}]}}}, "dtype": {"type": "DT_INT32"}}}, {"name": "stega_stamp_encoder_1/conv2d_transpose_4/strided_slice/stack_1", "op": "Const", "attr": {"value": {"tensor": {"dtype": "DT_INT32", "tensorShape": {"dim": [{"size": "1"}]}}}, "dtype": {"type": "DT_INT32"}}}, {"name": "stega_stamp_encoder_1/conv2d_transpose_4/strided_slice/stack_2", "op": "Const", "attr": {"value": {"tensor": {"dtype": "DT_INT32", "tensorShape": {"dim": [{"size": "1"}]}}}, "dtype": {"type": "DT_INT32"}}}, {"name": "stega_stamp_encoder_1/conv2d_transpose_4/stack/1", "op": "Const", "attr": {"value": {"tensor": {"dtype": "DT_INT32", "tensorShape": {}}}, "dtype": {"type": "DT_INT32"}}}, {"name": "stega_stamp_encoder_1/conv2d_transpose_4/stack/2", "op": "Const", "attr": {"value": {"tensor": {"dtype": "DT_INT32", "tensorShape": {}}}, "dtype": {"type": "DT_INT32"}}}, {"name": "stega_stamp_encoder_1/conv2d_transpose_4/stack/3", "op": "Const", "attr": {"value": {"tensor": {"dtype": "DT_INT32", "tensorShape": {}}}, "dtype": {"type": "DT_INT32"}}}, {"name": "stega_stamp_encoder/conv2d_transpose_4/kernel", "op": "Const", "attr": {"value": {"tensor": {"dtype": "DT_FLOAT", "tensorShape": {"dim": [{"size": "3"}, {"size": "3"}, {"size": "64"}, {"size": "192"}]}}}, "dtype": {"type": "DT_FLOAT"}}}, {"name": "stega_stamp_encoder_1/conv2d_transpose_3/strided_slice/stack", "op": "Const", "attr": {"value": {"tensor": {"dtype": "DT_INT32", "tensorShape": {"dim": [{"size": "1"}]}}}, "dtype": {"type": "DT_INT32"}}}, {"name": "stega_stamp_encoder_1/conv2d_transpose_3/strided_slice/stack_1", "op": "Const", "attr": {"value": {"tensor": {"dtype": "DT_INT32", "tensorShape": {"dim": [{"size": "1"}]}}}, "dtype": {"type": "DT_INT32"}}}, {"name": "stega_stamp_encoder_1/conv2d_transpose_3/strided_slice/stack_2", "op": "Const", "attr": {"value": {"tensor": {"dtype": "DT_INT32", "tensorShape": {"dim": [{"size": "1"}]}}}, "dtype": {"type": "DT_INT32"}}}, {"name": "stega_stamp_encoder_1/conv2d_transpose_3/stack/1", "op": "Const", "attr": {"value": {"tensor": {"dtype": "DT_INT32", "tensorShape": {}}}, "dtype": {"type": "DT_INT32"}}}, {"name": "stega_stamp_encoder_1/conv2d_transpose_3/stack/2", "op": "Const", "attr": {"value": {"tensor": {"dtype": "DT_INT32", "tensorShape": {}}}, "dtype": {"type": "DT_INT32"}}}, {"name": "stega_stamp_encoder_1/conv2d_transpose_3/stack/3", "op": "Const", "attr": {"value": {"tensor": {"dtype": "DT_INT32", "tensorShape": {}}}, "dtype": {"type": "DT_INT32"}}}, {"name": "stega_stamp_encoder/conv2d_transpose_3/kernel", "op": "Const", "attr": {"value": {"tensor": {"dtype": "DT_FLOAT", "tensorShape": {"dim": [{"size": "3"}, {"size": "3"}, {"size": "128"}, {"size": "128"}]}}}, "dtype": {"type": "DT_FLOAT"}}}, {"name": "stega_stamp_encoder/conv2d_10/kernel", "op": "Const", "attr": {"value": {"tensor": {"dtype": "DT_FLOAT", "tensorShape": {"dim": [{"size": "3"}, {"size": "3"}, {"size": "64"}, {"size": "128"}]}}}, "dtype": {"type": "DT_FLOAT"}}}, {"name": "stega_stamp_encoder/conv2d_10/bias", "op": "Const", "attr": {"value": {"tensor": {"dtype": "DT_FLOAT", "tensorShape": {"dim": [{"size": "128"}]}}}, "dtype": {"type": "DT_FLOAT"}}}, {"name": "stega_stamp_encoder/sequential/conv2d_5/kernel", "op": "Const", "attr": {"value": {"tensor": {"dtype": "DT_FLOAT", "tensorShape": {"dim": [{"size": "3"}, {"size": "3"}, {"size": "128"}, {"size": "16"}]}}}, "dtype": {"type": "DT_FLOAT"}}}, {"name": "stega_stamp_encoder/sequential/conv2d_5/bias", "op": "Const", "attr": {"value": {"tensor": {"dtype": "DT_FLOAT", "tensorShape": {"dim": [{"size": "16"}]}}}, "dtype": {"type": "DT_FLOAT"}}}, {"name": "stega_stamp_encoder/sequential/conv2d_6/kernel", "op": "Const", "attr": {"value": {"tensor": {"dtype": "DT_FLOAT", "tensorShape": {"dim": [{"size": "3"}, {"size": "3"}, {"size": "16"}, {"size": "1"}]}}}, "dtype": {"type": "DT_FLOAT"}}}, {"name": "stega_stamp_encoder/sequential/conv2d_6/bias", "op": "Const", "attr": {"value": {"tensor": {"dtype": "DT_FLOAT", "tensorShape": {"dim": [{"size": "1"}]}}}, "dtype": {"type": "DT_FLOAT"}}}, {"name": "stega_stamp_encoder/conv2d_transpose_3/bias", "op": "Const", "attr": {"value": {"tensor": {"dtype": "DT_FLOAT", "tensorShape": {"dim": [{"size": "128"}]}}}, "dtype": {"type": "DT_FLOAT"}}}, {"name": "stega_stamp_encoder/conv2d_9/kernel", "op": "Const", "attr": {"value": {"tensor": {"dtype": "DT_FLOAT", "tensorShape": {"dim": [{"size": "3"}, {"size": "3"}, {"size": "32"}, {"size": "64"}]}}}, "dtype": {"type": "DT_FLOAT"}}}, {"name": "stega_stamp_encoder/conv2d_9/bias", "op": "Const", "attr": {"value": {"tensor": {"dtype": "DT_FLOAT", "tensorShape": {"dim": [{"size": "64"}]}}}, "dtype": {"type": "DT_FLOAT"}}}, {"name": "stega_stamp_encoder_1/concatenate_11/concat/axis", "op": "Const", "attr": {"value": {"tensor": {"dtype": "DT_INT32", "tensorShape": {}}}, "dtype": {"type": "DT_INT32"}}}, {"name": "stega_stamp_encoder/conv2d_transpose_4/bias", "op": "Const", "attr": {"value": {"tensor": {"dtype": "DT_FLOAT", "tensorShape": {"dim": [{"size": "64"}]}}}, "dtype": {"type": "DT_FLOAT"}}}, {"name": "stega_stamp_encoder/conv2d_8/kernel", "op": "Const", "attr": {"value": {"tensor": {"dtype": "DT_FLOAT", "tensorShape": {"dim": [{"size": "3"}, {"size": "3"}, {"size": "32"}, {"size": "32"}]}}}, "dtype": {"type": "DT_FLOAT"}}}, {"name": "stega_stamp_encoder/conv2d_8/bias", "op": "Const", "attr": {"value": {"tensor": {"dtype": "DT_FLOAT", "tensorShape": {"dim": [{"size": "32"}]}}}, "dtype": {"type": "DT_FLOAT"}}}, {"name": "stega_stamp_encoder_1/concatenate_12/concat/axis", "op": "Const", "attr": {"value": {"tensor": {"dtype": "DT_INT32", "tensorShape": {}}}, "dtype": {"type": "DT_INT32"}}}, {"name": "stega_stamp_encoder/conv2d_transpose_5/bias", "op": "Const", "attr": {"value": {"tensor": {"dtype": "DT_FLOAT", "tensorShape": {"dim": [{"size": "32"}]}}}, "dtype": {"type": "DT_FLOAT"}}}, {"name": "input_prep", "op": "Placeholder", "attr": {"shape": {"shape": {"dim": [{"size": "-1"}, {"size": "100"}]}}, "dtype": {"type": "DT_FLOAT"}}}, {"name": "stega_stamp_encoder_1/sub/y", "op": "Const", "attr": {"value": {"tensor": {"dtype": "DT_FLOAT", "tensorShape": {}}}, "dtype": {"type": "DT_FLOAT"}}}, {"name": "stega_stamp_encoder/dense/kernel", "op": "Const", "attr": {"value": {"tensor": {"dtype": "DT_FLOAT", "tensorShape": {"dim": [{"size": "100"}, {"size": "7500"}]}}}, "dtype": {"type": "DT_FLOAT"}}}, {"name": "stega_stamp_encoder/dense/bias", "op": "Const", "attr": {"value": {"tensor": {"dtype": "DT_FLOAT", "tensorShape": {"dim": [{"size": "7500"}]}}}, "dtype": {"type": "DT_FLOAT"}}}, {"name": "stega_stamp_encoder_1/reshape_1/strided_slice/stack", "op": "Const", "attr": {"value": {"tensor": {"dtype": "DT_INT32", "tensorShape": {"dim": [{"size": "1"}]}}}, "dtype": {"type": "DT_INT32"}}}, {"name": "stega_stamp_encoder_1/reshape_1/strided_slice/stack_1", "op": "Const", "attr": {"value": {"tensor": {"dtype": "DT_INT32", "tensorShape": {"dim": [{"size": "1"}]}}}, "dtype": {"type": "DT_INT32"}}}, {"name": "stega_stamp_encoder_1/reshape_1/strided_slice/stack_2", "op": "Const", "attr": {"value": {"tensor": {"dtype": "DT_INT32", "tensorShape": {"dim": [{"size": "1"}]}}}, "dtype": {"type": "DT_INT32"}}}, {"name": "stega_stamp_encoder_1/reshape_1/Reshape/shape/1", "op": "Const", "attr": {"value": {"tensor": {"dtype": "DT_INT32", "tensorShape": {}}}, "dtype": {"type": "DT_INT32"}}}, {"name": "stega_stamp_encoder_1/reshape_1/Reshape/shape/2", "op": "Const", "attr": {"value": {"tensor": {"dtype": "DT_INT32", "tensorShape": {}}}, "dtype": {"type": "DT_INT32"}}}, {"name": "stega_stamp_encoder_1/reshape_1/Reshape/shape/3", "op": "Const", "attr": {"value": {"tensor": {"dtype": "DT_INT32", "tensorShape": {}}}, "dtype": {"type": "DT_INT32"}}}, {"name": "stega_stamp_encoder_1/up_sampling2d_1/mul", "op": "Const", "attr": {"value": {"tensor": {"dtype": "DT_INT32", "tensorShape": {"dim": [{"size": "2"}]}}}, "dtype": {"type": "DT_INT32"}}}, {"name": "input_hide", "op": "Placeholder", "attr": {"shape": {"shape": {"dim": [{"size": "-1"}, {"size": "400"}, {"size": "400"}, {"size": "3"}]}}, "dtype": {"type": "DT_FLOAT"}}}, {"name": "stega_stamp_encoder_1/sub_1/y", "op": "Const", "attr": {"value": {"tensor": {"dtype": "DT_FLOAT", "tensorShape": {}}}, "dtype": {"type": "DT_FLOAT"}}}, {"name": "stega_stamp_encoder_1/concatenate_10/concat/axis", "op": "Const", "attr": {"value": {"tensor": {"dtype": "DT_INT32", "tensorShape": {}}}, "dtype": {"type": "DT_INT32"}}}, {"name": "stega_stamp_encoder/conv2d_7/kernel", "op": "Const", "attr": {"value": {"tensor": {"dtype": "DT_FLOAT", "tensorShape": {"dim": [{"size": "3"}, {"size": "3"}, {"size": "6"}, {"size": "32"}]}}}, "dtype": {"type": "DT_FLOAT"}}}, {"name": "stega_stamp_encoder/conv2d_7/bias", "op": "Const", "attr": {"value": {"tensor": {"dtype": "DT_FLOAT", "tensorShape": {"dim": [{"size": "32"}]}}}, "dtype": {"type": "DT_FLOAT"}}}, {"name": "stega_stamp_encoder_1/concatenate_13/concat/axis", "op": "Const", "attr": {"value": {"tensor": {"dtype": "DT_INT32", "tensorShape": {}}}, "dtype": {"type": "DT_INT32"}}}, {"name": "stega_stamp_encoder/conv2d_11/kernel", "op": "Const", "attr": {"value": {"tensor": {"dtype": "DT_FLOAT", "tensorShape": {"dim": [{"size": "1"}, {"size": "1"}, {"size": "64"}, {"size": "3"}]}}}, "dtype": {"type": "DT_FLOAT"}}}, {"name": "stega_stamp_encoder/conv2d_11/bias", "op": "Const", "attr": {"value": {"tensor": {"dtype": "DT_FLOAT", "tensorShape": {"dim": [{"size": "3"}]}}}, "dtype": {"type": "DT_FLOAT"}}}, {"name": "stega_stamp_encoder_1/sub", "op": "Sub", "input": ["input_prep", "stega_stamp_encoder_1/sub/y"], "attr": {"T": {"type": "DT_FLOAT"}}}, {"name": "stega_stamp_decoder/sub", "op": "Sub", "input": ["input_hide", "stega_stamp_decoder/sub/y"], "attr": {"T": {"type": "DT_FLOAT"}}}, {"name": "stega_stamp_encoder_1/sub_1", "op": "Sub", "input": ["input_hide", "stega_stamp_encoder_1/sub_1/y"], "attr": {"T": {"type": "DT_FLOAT"}}}, {"name": "stega_stamp_encoder_1/dense/Relu", "op": "_FusedMatMul", "input": ["stega_stamp_encoder_1/sub", "stega_stamp_encoder/dense/kernel", "stega_stamp_encoder/dense/bias"], "device": "/device:CPU:0", "attr": {"transpose_a": {"b": false}, "transpose_b": {"b": false}, "fused_ops": {"list": {"s": ["Qmlhc0FkZA==", "UmVsdQ=="]}}, "num_args": {"i": "1"}, "leakyrelu_alpha": {"f": 0.2}, "epsilon": {"f": 0.0}, "T": {"type": "DT_FLOAT"}}}, {"name": "stega_stamp_decoder/Shape_4", "op": "Shape", "input": ["stega_stamp_decoder/sub"], "attr": {"T": {"type": "DT_FLOAT"}, "out_type": {"type": "DT_INT32"}}, "experimentalType": {"typeId": "TFT_PRODUCT", "args": [{"typeId": "TFT_SHAPE_TENSOR", "args": [{"typeId": "TFT_INT32"}]}]}}, {"name": "stega_stamp_decoder/sequential_1/conv2d_12/Conv2D", "op": "Conv2D", "input": ["stega_stamp_decoder/sub", "cond_3/stega_stamp_decoder/sequential_1/conv2d_12/kernel"], "device": "/device:CPU:0", "attr": {"padding": {"s": "U0FNRQ=="}, "data_format": {"s": "TkhXQw=="}, "strides": {"list": {"i": ["1", "2", "2", "1"]}}, "use_cudnn_on_gpu": {"b": true}, "T": {"type": "DT_FLOAT"}, "explicit_paddings": {"list": {}}, "dilations": {"list": {"i": ["1", "1", "1", "1"]}}}}, {"name": "stega_stamp_decoder/Shape", "op": "Shape", "input": ["stega_stamp_decoder/sub"], "attr": {"T": {"type": "DT_FLOAT"}, "out_type": {"type": "DT_INT32"}}, "experimentalType": {"typeId": "TFT_PRODUCT", "args": [{"typeId": "TFT_SHAPE_TENSOR", "args": [{"typeId": "TFT_INT32"}]}]}}, {"name": "stega_stamp_decoder/Shape_5", "op": "Shape", "input": ["stega_stamp_decoder/sub"], "attr": {"T": {"type": "DT_FLOAT"}, "out_type": {"type": "DT_INT32"}}, "experimentalType": {"typeId": "TFT_PRODUCT", "args": [{"typeId": "TFT_SHAPE_TENSOR", "args": [{"typeId": "TFT_INT32"}]}]}}, {"name": "stega_stamp_encoder_1/reshape_1/Shape", "op": "Shape", "input": ["stega_stamp_encoder_1/dense/Relu"], "attr": {"T": {"type": "DT_FLOAT"}, "out_type": {"type": "DT_INT32"}}, "experimentalType": {"typeId": "TFT_PRODUCT", "args": [{"typeId": "TFT_SHAPE_TENSOR", "args": [{"typeId": "TFT_INT32"}]}]}}, {"name": "stega_stamp_decoder/strided_slice_6", "op": "StridedSlice", "input": ["stega_stamp_decoder/Shape_4", "stega_stamp_decoder/strided_slice_6/stack", "stega_stamp_decoder/strided_slice_6/stack_1", "stega_stamp_decoder/strided_slice_6/stack_2"], "attr": {"shrink_axis_mask": {"i": "1"}, "new_axis_mask": {"i": "0"}, "Index": {"type": "DT_INT32"}, "begin_mask": {"i": "0"}, "T": {"type": "DT_INT32"}, "end_mask": {"i": "0"}, "ellipsis_mask": {"i": "0"}}}, {"name": "stega_stamp_decoder/sequential_1/conv2d_12/Relu", "op": "Relu", "input": ["stega_stamp_decoder/sequential_1/conv2d_12/Conv2D"], "attr": {"T": {"type": "DT_FLOAT"}}}, {"name": "stega_stamp_decoder/strided_slice", "op": "StridedSlice", "input": ["stega_stamp_decoder/Shape", "stega_stamp_decoder/strided_slice/stack", "stega_stamp_decoder/strided_slice/stack_1", "stega_stamp_decoder/strided_slice/stack_2"], "attr": {"shrink_axis_mask": {"i": "1"}, "Index": {"type": "DT_INT32"}, "new_axis_mask": {"i": "0"}, "begin_mask": {"i": "0"}, "T": {"type": "DT_INT32"}, "end_mask": {"i": "0"}, "ellipsis_mask": {"i": "0"}}}, {"name": "stega_stamp_decoder/strided_slice_7", "op": "StridedSlice", "input": ["stega_stamp_decoder/Shape_5", "stega_stamp_decoder/strided_slice_7/stack", "stega_stamp_decoder/strided_slice_7/stack_1", "stega_stamp_decoder/strided_slice_7/stack_2"], "attr": {"shrink_axis_mask": {"i": "1"}, "new_axis_mask": {"i": "0"}, "Index": {"type": "DT_INT32"}, "begin_mask": {"i": "0"}, "end_mask": {"i": "0"}, "T": {"type": "DT_INT32"}, "ellipsis_mask": {"i": "0"}}}, {"name": "stega_stamp_encoder_1/reshape_1/strided_slice", "op": "StridedSlice", "input": ["stega_stamp_encoder_1/reshape_1/Shape", "stega_stamp_encoder_1/reshape_1/strided_slice/stack", "stega_stamp_encoder_1/reshape_1/strided_slice/stack_1", "stega_stamp_encoder_1/reshape_1/strided_slice/stack_2"], "attr": {"shrink_axis_mask": {"i": "1"}, "Index": {"type": "DT_INT32"}, "new_axis_mask": {"i": "0"}, "begin_mask": {"i": "0"}, "T": {"type": "DT_INT32"}, "end_mask": {"i": "0"}, "ellipsis_mask": {"i": "0"}}}, {"name": "stega_stamp_decoder/sub_1", "op": "Sub", "input": ["stega_stamp_decoder/strided_slice_6", "stega_stamp_decoder/sub_1/y"], "attr": {"T": {"type": "DT_INT32"}}}, {"name": "stega_stamp_decoder/sequential_1/conv2d_13/Conv2D", "op": "Conv2D", "input": ["stega_stamp_decoder/sequential_1/conv2d_12/Relu", "cond_3/stega_stamp_decoder/sequential_1/conv2d_13/kernel"], "device": "/device:CPU:0", "attr": {"padding": {"s": "U0FNRQ=="}, "data_format": {"s": "TkhXQw=="}, "use_cudnn_on_gpu": {"b": true}, "strides": {"list": {"i": ["1", "2", "2", "1"]}}, "T": {"type": "DT_FLOAT"}, "explicit_paddings": {"list": {}}, "dilations": {"list": {"i": ["1", "1", "1", "1"]}}}}, {"name": "stega_stamp_decoder/Reshape/shape", "op": "Pack", "input": ["stega_stamp_decoder/strided_slice", "stega_stamp_decoder/Reshape/shape/1", "stega_stamp_decoder/Reshape/shape/2"], "attr": {"N": {"i": "3"}, "axis": {"i": "0"}, "T": {"type": "DT_INT32"}}}, {"name": "stega_stamp_decoder/sub_2", "op": "Sub", "input": ["stega_stamp_decoder/strided_slice_7", "stega_stamp_decoder/sub_2/y"], "attr": {"T": {"type": "DT_INT32"}}}, {"name": "stega_stamp_encoder_1/reshape_1/Reshape/shape", "op": "Pack", "input": ["stega_stamp_encoder_1/reshape_1/strided_slice", "stega_stamp_encoder_1/reshape_1/Reshape/shape/1", "stega_stamp_encoder_1/reshape_1/Reshape/shape/2", "stega_stamp_encoder_1/reshape_1/Reshape/shape/3"], "attr": {"N": {"i": "4"}, "axis": {"i": "0"}, "T": {"type": "DT_INT32"}}}, {"name": "stega_stamp_decoder/sub_4", "op": "Sub", "input": ["stega_stamp_decoder/sub_1", "stega_stamp_decoder/sub_4/y"], "attr": {"T": {"type": "DT_INT32"}}}, {"name": "stega_stamp_decoder/sequential_1/conv2d_13/Relu", "op": "Relu", "input": ["stega_stamp_decoder/sequential_1/conv2d_13/Conv2D"], "attr": {"T": {"type": "DT_FLOAT"}}}, {"name": "stega_stamp_decoder/sub_3", "op": "Sub", "input": ["stega_stamp_decoder/sub_2", "stega_stamp_decoder/sub_3/y"], "attr": {"T": {"type": "DT_INT32"}}}, {"name": "stega_stamp_encoder_1/reshape_1/Reshape", "op": "Reshape", "input": ["stega_stamp_encoder_1/dense/Relu", "stega_stamp_encoder_1/reshape_1/Reshape/shape"], "attr": {"T": {"type": "DT_FLOAT"}, "Tshape": {"type": "DT_INT32"}}}, {"name": "stega_stamp_decoder/Cast_1", "op": "Cast", "input": ["stega_stamp_decoder/sub_4"], "attr": {"SrcT": {"type": "DT_INT32"}, "DstT": {"type": "DT_FLOAT"}, "Truncate": {"b": false}}}, {"name": "stega_stamp_decoder/sequential_1/conv2d_14/Conv2D", "op": "Conv2D", "input": ["stega_stamp_decoder/sequential_1/conv2d_13/Relu", "cond_3/stega_stamp_decoder/sequential_1/conv2d_14/kernel"], "device": "/device:CPU:0", "attr": {"padding": {"s": "U0FNRQ=="}, "data_format": {"s": "TkhXQw=="}, "use_cudnn_on_gpu": {"b": true}, "strides": {"list": {"i": ["1", "2", "2", "1"]}}, "T": {"type": "DT_FLOAT"}, "explicit_paddings": {"list": {}}, "dilations": {"list": {"i": ["1", "1", "1", "1"]}}}}, {"name": "stega_stamp_decoder/Cast", "op": "Cast", "input": ["stega_stamp_decoder/sub_3"], "attr": {"SrcT": {"type": "DT_INT32"}, "DstT": {"type": "DT_FLOAT"}, "Truncate": {"b": false}}}, {"name": "stega_stamp_encoder_1/up_sampling2d_1/resize/ResizeNearestNeighbor", "op": "ResizeNearestNeighbor", "input": ["stega_stamp_encoder_1/reshape_1/Reshape", "stega_stamp_encoder_1/up_sampling2d_1/mul"], "attr": {"T": {"type": "DT_FLOAT"}, "align_corners": {"b": false}, "half_pixel_centers": {"b": true}}}, {"name": "stega_stamp_decoder/mul_2", "op": "Mul", "input": ["stega_stamp_decoder/mul_3/x", "stega_stamp_decoder/Cast_1"], "attr": {"_grappler_ArithmeticOptimizer_MinimizeBroadcasts": {"b": true}, "T": {"type": "DT_FLOAT"}}}, {"name": "stega_stamp_decoder/sequential_1/conv2d_14/Relu", "op": "Relu", "input": ["stega_stamp_decoder/sequential_1/conv2d_14/Conv2D"], "attr": {"T": {"type": "DT_FLOAT"}}}, {"name": "stega_stamp_decoder/mul", "op": "Mul", "input": ["stega_stamp_decoder/mul_1/x", "stega_stamp_decoder/Cast"], "attr": {"_grappler_ArithmeticOptimizer_MinimizeBroadcasts": {"b": true}, "T": {"type": "DT_FLOAT"}}}, {"name": "stega_stamp_encoder_1/concatenate_10/concat", "op": "ConcatV2", "input": ["stega_stamp_encoder_1/up_sampling2d_1/resize/ResizeNearestNeighbor", "stega_stamp_encoder_1/sub_1", "stega_stamp_encoder_1/concatenate_10/concat/axis"], "attr": {"N": {"i": "2"}, "T": {"type": "DT_FLOAT"}, "Tidx": {"type": "DT_INT32"}}}, {"name": "stega_stamp_decoder/sequential_1/flatten/Reshape", "op": "Reshape", "input": ["stega_stamp_decoder/sequential_1/conv2d_14/Relu", "stega_stamp_decoder/sequential_1/flatten/Const"], "attr": {"T": {"type": "DT_FLOAT"}, "Tshape": {"type": "DT_INT32"}}}, {"name": "stega_stamp_encoder_1/conv2d_7/Relu", "op": "_FusedConv2D", "input": ["stega_stamp_encoder_1/concatenate_10/concat", "stega_stamp_encoder/conv2d_7/kernel", "stega_stamp_encoder/conv2d_7/bias"], "device": "/device:CPU:0", "attr": {"num_host_args": {"i": "0"}, "data_format": {"s": "TkhXQw=="}, "filter_format": {"s": "SFdJTw=="}, "strides": {"list": {"i": ["1", "1", "1", "1"]}}, "num_args": {"i": "1"}, "fused_ops": {"list": {"s": ["Qmlhc0FkZA==", "UmVsdQ=="]}}, "TArgs": {"list": {"type": ["DT_FLOAT"]}}, "padding": {"s": "U0FNRQ=="}, "use_cudnn_on_gpu": {"b": true}, "leakyrelu_alpha": {"f": 0.2}, "epsilon": {"f": 0.0}, "T": {"type": "DT_FLOAT"}, "explicit_paddings": {"list": {}}, "dilations": {"list": {"i": ["1", "1", "1", "1"]}}}}, {"name": "stega_stamp_decoder/sequential_1/dense_1/MatMul", "op": "MatMul", "input": ["stega_stamp_decoder/sequential_1/flatten/Reshape", "cond_3/stega_stamp_decoder/sequential_1/dense_1/kernel"], "device": "/device:CPU:0", "attr": {"transpose_a": {"b": false}, "T": {"type": "DT_FLOAT"}, "transpose_b": {"b": false}}}, {"name": "stega_stamp_encoder_1/conv2d_8/Relu", "op": "_FusedConv2D", "input": ["stega_stamp_encoder_1/conv2d_7/Relu", "stega_stamp_encoder/conv2d_8/kernel", "stega_stamp_encoder/conv2d_8/bias"], "device": "/device:CPU:0", "attr": {"num_host_args": {"i": "0"}, "data_format": {"s": "TkhXQw=="}, "filter_format": {"s": "SFdJTw=="}, "fused_ops": {"list": {"s": ["Qmlhc0FkZA==", "UmVsdQ=="]}}, "num_args": {"i": "1"}, "strides": {"list": {"i": ["1", "2", "2", "1"]}}, "TArgs": {"list": {"type": ["DT_FLOAT"]}}, "padding": {"s": "U0FNRQ=="}, "use_cudnn_on_gpu": {"b": true}, "leakyrelu_alpha": {"f": 0.2}, "epsilon": {"f": 0.0}, "T": {"type": "DT_FLOAT"}, "explicit_paddings": {"list": {}}, "dilations": {"list": {"i": ["1", "1", "1", "1"]}}}}, {"name": "stega_stamp_decoder/sequential_1/dense_1/Relu", "op": "Relu", "input": ["stega_stamp_decoder/sequential_1/dense_1/MatMul"], "attr": {"T": {"type": "DT_FLOAT"}}}, {"name": "stega_stamp_encoder_1/conv2d_9/Relu", "op": "_FusedConv2D", "input": ["stega_stamp_encoder_1/conv2d_8/Relu", "stega_stamp_encoder/conv2d_9/kernel", "stega_stamp_encoder/conv2d_9/bias"], "device": "/device:CPU:0", "attr": {"num_host_args": {"i": "0"}, "data_format": {"s": "TkhXQw=="}, "filter_format": {"s": "SFdJTw=="}, "fused_ops": {"list": {"s": ["Qmlhc0FkZA==", "UmVsdQ=="]}}, "num_args": {"i": "1"}, "strides": {"list": {"i": ["1", "2", "2", "1"]}}, "TArgs": {"list": {"type": ["DT_FLOAT"]}}, "padding": {"s": "U0FNRQ=="}, "use_cudnn_on_gpu": {"b": true}, "leakyrelu_alpha": {"f": 0.2}, "epsilon": {"f": 0.0}, "T": {"type": "DT_FLOAT"}, "explicit_paddings": {"list": {}}, "dilations": {"list": {"i": ["1", "1", "1", "1"]}}}}, {"name": "stega_stamp_decoder/MatMul", "op": "MatMul", "input": ["stega_stamp_decoder/sequential_1/dense_1/Relu", "W_fc1"], "device": "/device:CPU:0", "attr": {"transpose_a": {"b": false}, "T": {"type": "DT_FLOAT"}, "transpose_b": {"b": false}}}, {"name": "stega_stamp_encoder_1/conv2d_10/Relu", "op": "_FusedConv2D", "input": ["stega_stamp_encoder_1/conv2d_9/Relu", "stega_stamp_encoder/conv2d_10/kernel", "stega_stamp_encoder/conv2d_10/bias"], "device": "/device:CPU:0", "attr": {"num_host_args": {"i": "0"}, "data_format": {"s": "TkhXQw=="}, "filter_format": {"s": "SFdJTw=="}, "fused_ops": {"list": {"s": ["Qmlhc0FkZA==", "UmVsdQ=="]}}, "num_args": {"i": "1"}, "strides": {"list": {"i": ["1", "2", "2", "1"]}}, "TArgs": {"list": {"type": ["DT_FLOAT"]}}, "padding": {"s": "U0FNRQ=="}, "use_cudnn_on_gpu": {"b": true}, "leakyrelu_alpha": {"f": 0.2}, "epsilon": {"f": 0.0}, "T": {"type": "DT_FLOAT"}, "explicit_paddings": {"list": {}}, "dilations": {"list": {"i": ["1", "1", "1", "1"]}}}}, {"name": "stega_stamp_decoder/add", "op": "AddV2", "input": ["stega_stamp_decoder/MatMul", "b_fc1"], "attr": {"T": {"type": "DT_FLOAT"}}}, {"name": "stega_stamp_encoder_1/sequential/conv2d_5/Relu", "op": "_FusedConv2D", "input": ["stega_stamp_encoder_1/conv2d_10/Relu", "stega_stamp_encoder/sequential/conv2d_5/kernel", "stega_stamp_encoder/sequential/conv2d_5/bias"], "device": "/device:CPU:0", "attr": {"num_host_args": {"i": "0"}, "data_format": {"s": "TkhXQw=="}, "filter_format": {"s": "SFdJTw=="}, "strides": {"list": {"i": ["1", "1", "1", "1"]}}, "num_args": {"i": "1"}, "fused_ops": {"list": {"s": ["Qmlhc0FkZA==", "UmVsdQ=="]}}, "TArgs": {"list": {"type": ["DT_FLOAT"]}}, "padding": {"s": "U0FNRQ=="}, "use_cudnn_on_gpu": {"b": true}, "leakyrelu_alpha": {"f": 0.2}, "epsilon": {"f": 0.0}, "T": {"type": "DT_FLOAT"}, "explicit_paddings": {"list": {}}, "dilations": {"list": {"i": ["1", "1", "1", "1"]}}}}, {"name": "stega_stamp_decoder/Reshape", "op": "Reshape", "input": ["stega_stamp_decoder/add", "stega_stamp_decoder/Reshape/shape"], "attr": {"T": {"type": "DT_FLOAT"}, "Tshape": {"type": "DT_INT32"}}}, {"name": "stega_stamp_encoder_1/sequential/conv2d_6/BiasAdd", "op": "_FusedConv2D", "input": ["stega_stamp_encoder_1/sequential/conv2d_5/Relu", "stega_stamp_encoder/sequential/conv2d_6/kernel", "stega_stamp_encoder/sequential/conv2d_6/bias"], "device": "/device:CPU:0", "attr": {"num_host_args": {"i": "0"}, "data_format": {"s": "TkhXQw=="}, "filter_format": {"s": "SFdJTw=="}, "strides": {"list": {"i": ["1", "1", "1", "1"]}}, "num_args": {"i": "1"}, "fused_ops": {"list": {"s": ["Qmlhc0FkZA=="]}}, "TArgs": {"list": {"type": ["DT_FLOAT"]}}, "padding": {"s": "U0FNRQ=="}, "use_cudnn_on_gpu": {"b": true}, "leakyrelu_alpha": {"f": 0.2}, "epsilon": {"f": 0.0}, "T": {"type": "DT_FLOAT"}, "explicit_paddings": {"list": {}}, "dilations": {"list": {"i": ["1", "1", "1", "1"]}}}}, {"name": "stega_stamp_decoder/Shape_3", "op": "Shape", "input": ["stega_stamp_decoder/Reshape"], "attr": {"T": {"type": "DT_FLOAT"}, "out_type": {"type": "DT_INT32"}}, "experimentalType": {"typeId": "TFT_PRODUCT", "args": [{"typeId": "TFT_SHAPE_TENSOR", "args": [{"typeId": "TFT_INT32"}]}]}}, {"name": "stega_stamp_encoder_1/sequential/conv2d_6/Sigmoid", "op": "Sigmoid", "input": ["stega_stamp_encoder_1/sequential/conv2d_6/BiasAdd"], "attr": {"T": {"type": "DT_FLOAT"}}}, {"name": "stega_stamp_decoder/strided_slice_3", "op": "StridedSlice", "input": ["stega_stamp_decoder/Shape_3", "stega_stamp_decoder/strided_slice_3/stack", "stega_stamp_decoder/strided_slice_3/stack_1", "stega_stamp_decoder/strided_slice_3/stack_2"], "attr": {"shrink_axis_mask": {"i": "1"}, "Index": {"type": "DT_INT32"}, "new_axis_mask": {"i": "0"}, "begin_mask": {"i": "0"}, "end_mask": {"i": "0"}, "T": {"type": "DT_INT32"}, "ellipsis_mask": {"i": "0"}}}, {"name": "stega_stamp_encoder_1/mul", "op": "Mul", "input": ["stega_stamp_encoder_1/conv2d_10/Relu", "stega_stamp_encoder_1/sequential/conv2d_6/Sigmoid"], "attr": {"T": {"type": "DT_FLOAT"}}}, {"name": "stega_stamp_decoder/stack_1", "op": "Pack", "input": ["stega_stamp_decoder/strided_slice_3", "stega_stamp_decoder/stack_1/1", "stega_stamp_decoder/stack_1/2"], "attr": {"N": {"i": "3"}, "axis": {"i": "0"}, "T": {"type": "DT_INT32"}}}, {"name": "stega_stamp_decoder/Reshape_3/shape", "op": "Pack", "input": ["stega_stamp_decoder/strided_slice_3", "stega_stamp_decoder/Reshape_3/shape/1", "stega_stamp_decoder/Reshape_3/shape/2", "stega_stamp_decoder/Reshape_3/shape/3"], "attr": {"N": {"i": "4"}, "axis": {"i": "0"}, "T": {"type": "DT_INT32"}}}, {"name": "stega_stamp_encoder_1/conv2d_transpose_3/Shape", "op": "Shape", "input": ["stega_stamp_encoder_1/mul"], "attr": {"T": {"type": "DT_FLOAT"}, "out_type": {"type": "DT_INT32"}}, "experimentalType": {"typeId": "TFT_PRODUCT", "args": [{"typeId": "TFT_SHAPE_TENSOR", "args": [{"typeId": "TFT_INT32"}]}]}}, {"name": "stega_stamp_decoder/Tile", "op": "Tile", "input": ["stega_stamp_decoder/ExpandDims", "stega_stamp_decoder/stack_1"], "attr": {"T": {"type": "DT_FLOAT"}, "Tmultiples": {"type": "DT_INT32"}}}, {"name": "stega_stamp_encoder_1/conv2d_transpose_3/strided_slice", "op": "StridedSlice", "input": ["stega_stamp_encoder_1/conv2d_transpose_3/Shape", "stega_stamp_encoder_1/conv2d_transpose_3/strided_slice/stack", "stega_stamp_encoder_1/conv2d_transpose_3/strided_slice/stack_1", "stega_stamp_encoder_1/conv2d_transpose_3/strided_slice/stack_2"], "attr": {"shrink_axis_mask": {"i": "1"}, "new_axis_mask": {"i": "0"}, "Index": {"type": "DT_INT32"}, "begin_mask": {"i": "0"}, "T": {"type": "DT_INT32"}, "end_mask": {"i": "0"}, "ellipsis_mask": {"i": "0"}}}, {"name": "stega_stamp_decoder/MatMul_1", "op": "BatchMatMulV2", "input": ["stega_stamp_decoder/Reshape", "stega_stamp_decoder/Tile"], "attr": {"adj_x": {"b": false}, "T": {"type": "DT_FLOAT"}, "adj_y": {"b": false}}}, {"name": "stega_stamp_encoder_1/conv2d_transpose_3/stack", "op": "Pack", "input": ["stega_stamp_encoder_1/conv2d_transpose_3/strided_slice", "stega_stamp_encoder_1/conv2d_transpose_3/stack/1", "stega_stamp_encoder_1/conv2d_transpose_3/stack/2", "stega_stamp_encoder_1/conv2d_transpose_3/stack/3"], "attr": {"N": {"i": "4"}, "axis": {"i": "0"}, "T": {"type": "DT_INT32"}}}, {"name": "stega_stamp_decoder/Reshape_3", "op": "Reshape", "input": ["stega_stamp_decoder/MatMul_1", "stega_stamp_decoder/Reshape_3/shape"], "attr": {"T": {"type": "DT_FLOAT"}, "Tshape": {"type": "DT_INT32"}}}, {"name": "stega_stamp_encoder_1/conv2d_transpose_3/conv2d_transpose", "op": "Conv2DBackpropInput", "input": ["stega_stamp_encoder_1/conv2d_transpose_3/stack", "stega_stamp_encoder/conv2d_transpose_3/kernel", "stega_stamp_encoder_1/mul"], "attr": {"padding": {"s": "U0FNRQ=="}, "data_format": {"s": "TkhXQw=="}, "use_cudnn_on_gpu": {"b": true}, "strides": {"list": {"i": ["1", "2", "2", "1"]}}, "T": {"type": "DT_FLOAT"}, "explicit_paddings": {"list": {}}, "dilations": {"list": {"i": ["1", "1", "1", "1"]}}}}, {"name": "stega_stamp_decoder/strided_slice_5", "op": "StridedSlice", "input": ["stega_stamp_decoder/Reshape_3", "stega_stamp_decoder/strided_slice_5/stack", "stega_stamp_decoder/strided_slice_5/stack_1", "stega_stamp_decoder/strided_slice_5/stack_2"], "attr": {"shrink_axis_mask": {"i": "2"}, "new_axis_mask": {"i": "0"}, "Index": {"type": "DT_INT32"}, "begin_mask": {"i": "13"}, "end_mask": {"i": "13"}, "T": {"type": "DT_FLOAT"}, "ellipsis_mask": {"i": "0"}}}, {"name": "stega_stamp_decoder/strided_slice_4", "op": "StridedSlice", "input": ["stega_stamp_decoder/Reshape_3", "stega_stamp_decoder/strided_slice_4/stack", "stega_stamp_decoder/strided_slice_4/stack_1", "stega_stamp_decoder/strided_slice_4/stack_2"], "attr": {"shrink_axis_mask": {"i": "2"}, "new_axis_mask": {"i": "0"}, "Index": {"type": "DT_INT32"}, "begin_mask": {"i": "13"}, "T": {"type": "DT_FLOAT"}, "end_mask": {"i": "13"}, "ellipsis_mask": {"i": "0"}}}, {"name": "stega_stamp_encoder_1/conv2d_transpose_3/BiasAdd", "op": "BiasAdd", "input": ["stega_stamp_encoder_1/conv2d_transpose_3/conv2d_transpose", "stega_stamp_encoder/conv2d_transpose_3/bias"], "attr": {"data_format": {"s": "TkhXQw=="}, "T": {"type": "DT_FLOAT"}}}, {"name": "stega_stamp_decoder/add_2", "op": "AddV2", "input": ["stega_stamp_decoder/strided_slice_5", "stega_stamp_decoder/add_2/y"], "attr": {"T": {"type": "DT_FLOAT"}}}, {"name": "stega_stamp_decoder/add_1", "op": "AddV2", "input": ["stega_stamp_decoder/strided_slice_4", "stega_stamp_decoder/add_1/y"], "attr": {"T": {"type": "DT_FLOAT"}}}, {"name": "stega_stamp_encoder_1/conv2d_transpose_3/Relu", "op": "Relu", "input": ["stega_stamp_encoder_1/conv2d_transpose_3/BiasAdd"], "attr": {"T": {"type": "DT_FLOAT"}}}, {"name": "stega_stamp_decoder/mul_3", "op": "Mul", "input": ["stega_stamp_decoder/mul_2", "stega_stamp_decoder/add_2"], "attr": {"_grappler_ArithmeticOptimizer_MinimizeBroadcasts": {"b": true}, "T": {"type": "DT_FLOAT"}}}, {"name": "stega_stamp_decoder/mul_1", "op": "Mul", "input": ["stega_stamp_decoder/mul", "stega_stamp_decoder/add_1"], "attr": {"_grappler_ArithmeticOptimizer_MinimizeBroadcasts": {"b": true}, "T": {"type": "DT_FLOAT"}}}, {"name": "stega_stamp_encoder_1/concatenate_11/concat", "op": "ConcatV2", "input": ["stega_stamp_encoder_1/conv2d_transpose_3/Relu", "stega_stamp_encoder_1/conv2d_9/Relu", "stega_stamp_encoder_1/concatenate_11/concat/axis"], "attr": {"N": {"i": "2"}, "Tidx": {"type": "DT_INT32"}, "T": {"type": "DT_FLOAT"}}}, {"name": "stega_stamp_decoder/Floor_1", "op": "Floor", "input": ["stega_stamp_decoder/mul_3"], "attr": {"T": {"type": "DT_FLOAT"}}}, {"name": "stega_stamp_decoder/Floor", "op": "Floor", "input": ["stega_stamp_decoder/mul_1"], "attr": {"T": {"type": "DT_FLOAT"}}}, {"name": "stega_stamp_encoder_1/conv2d_transpose_4/Shape", "op": "Shape", "input": ["stega_stamp_encoder_1/concatenate_11/concat"], "attr": {"T": {"type": "DT_FLOAT"}, "out_type": {"type": "DT_INT32"}}, "experimentalType": {"typeId": "TFT_PRODUCT", "args": [{"typeId": "TFT_SHAPE_TENSOR", "args": [{"typeId": "TFT_INT32"}]}]}}, {"name": "stega_stamp_decoder/Cast_3", "op": "Cast", "input": ["stega_stamp_decoder/Floor_1"], "attr": {"SrcT": {"type": "DT_FLOAT"}, "DstT": {"type": "DT_INT32"}, "Truncate": {"b": false}}}, {"name": "stega_stamp_decoder/Cast_2", "op": "Cast", "input": ["stega_stamp_decoder/Floor"], "attr": {"SrcT": {"type": "DT_FLOAT"}, "DstT": {"type": "DT_INT32"}, "Truncate": {"b": false}}}, {"name": "stega_stamp_encoder_1/conv2d_transpose_4/strided_slice", "op": "StridedSlice", "input": ["stega_stamp_encoder_1/conv2d_transpose_4/Shape", "stega_stamp_encoder_1/conv2d_transpose_4/strided_slice/stack", "stega_stamp_encoder_1/conv2d_transpose_4/strided_slice/stack_1", "stega_stamp_encoder_1/conv2d_transpose_4/strided_slice/stack_2"], "attr": {"shrink_axis_mask": {"i": "1"}, "new_axis_mask": {"i": "0"}, "Index": {"type": "DT_INT32"}, "begin_mask": {"i": "0"}, "T": {"type": "DT_INT32"}, "end_mask": {"i": "0"}, "ellipsis_mask": {"i": "0"}}}, {"name": "stega_stamp_decoder/clip_by_value_2/Minimum", "op": "Minimum", "input": ["stega_stamp_decoder/Cast_3", "stega_stamp_decoder/sub_1"], "attr": {"T": {"type": "DT_INT32"}}}, {"name": "stega_stamp_decoder/add_4", "op": "AddV2", "input": ["stega_stamp_decoder/Cast_3", "stega_stamp_decoder/add_4/y"], "attr": {"T": {"type": "DT_INT32"}}}, {"name": "stega_stamp_decoder/add_3", "op": "AddV2", "input": ["stega_stamp_decoder/Cast_2", "stega_stamp_decoder/add_3/y"], "attr": {"T": {"type": "DT_INT32"}}}, {"name": "stega_stamp_decoder/clip_by_value/Minimum", "op": "Minimum", "input": ["stega_stamp_decoder/Cast_2", "stega_stamp_decoder/sub_2"], "attr": {"T": {"type": "DT_INT32"}}}, {"name": "stega_stamp_encoder_1/conv2d_transpose_4/stack", "op": "Pack", "input": ["stega_stamp_encoder_1/conv2d_transpose_4/strided_slice", "stega_stamp_encoder_1/conv2d_transpose_4/stack/1", "stega_stamp_encoder_1/conv2d_transpose_4/stack/2", "stega_stamp_encoder_1/conv2d_transpose_4/stack/3"], "attr": {"N": {"i": "4"}, "axis": {"i": "0"}, "T": {"type": "DT_INT32"}}}, {"name": "stega_stamp_decoder/clip_by_value_2", "op": "Maximum", "input": ["stega_stamp_decoder/clip_by_value_2/Minimum", "stega_stamp_decoder/zeros"], "attr": {"T": {"type": "DT_INT32"}}}, {"name": "stega_stamp_decoder/clip_by_value_3/Minimum", "op": "Minimum", "input": ["stega_stamp_decoder/add_4", "stega_stamp_decoder/sub_1"], "attr": {"T": {"type": "DT_INT32"}}}, {"name": "stega_stamp_decoder/clip_by_value_1/Minimum", "op": "Minimum", "input": ["stega_stamp_decoder/add_3", "stega_stamp_decoder/sub_2"], "attr": {"T": {"type": "DT_INT32"}}}, {"name": "stega_stamp_decoder/clip_by_value", "op": "Maximum", "input": ["stega_stamp_decoder/clip_by_value/Minimum", "stega_stamp_decoder/zeros"], "attr": {"T": {"type": "DT_INT32"}}}, {"name": "stega_stamp_encoder_1/conv2d_transpose_4/conv2d_transpose", "op": "Conv2DBackpropInput", "input": ["stega_stamp_encoder_1/conv2d_transpose_4/stack", "stega_stamp_encoder/conv2d_transpose_4/kernel", "stega_stamp_encoder_1/concatenate_11/concat"], "attr": {"padding": {"s": "U0FNRQ=="}, "data_format": {"s": "TkhXQw=="}, "use_cudnn_on_gpu": {"b": true}, "strides": {"list": {"i": ["1", "2", "2", "1"]}}, "T": {"type": "DT_FLOAT"}, "explicit_paddings": {"list": {}}, "dilations": {"list": {"i": ["1", "1", "1", "1"]}}}}, {"name": "stega_stamp_decoder/Cast_6", "op": "Cast", "input": ["stega_stamp_decoder/clip_by_value_2"], "attr": {"SrcT": {"type": "DT_INT32"}, "DstT": {"type": "DT_FLOAT"}, "Truncate": {"b": false}}}, {"name": "stega_stamp_decoder/clip_by_value_3", "op": "Maximum", "input": ["stega_stamp_decoder/clip_by_value_3/Minimum", "stega_stamp_decoder/zeros"], "attr": {"T": {"type": "DT_INT32"}}}, {"name": "stega_stamp_decoder/clip_by_value_1", "op": "Maximum", "input": ["stega_stamp_decoder/clip_by_value_1/Minimum", "stega_stamp_decoder/zeros"], "attr": {"T": {"type": "DT_INT32"}}}, {"name": "stega_stamp_decoder/Shape_6", "op": "Shape", "input": ["stega_stamp_decoder/clip_by_value"], "attr": {"T": {"type": "DT_INT32"}, "out_type": {"type": "DT_INT32"}}, "experimentalType": {"typeId": "TFT_PRODUCT", "args": [{"typeId": "TFT_SHAPE_TENSOR", "args": [{"typeId": "TFT_INT32"}]}]}}, {"name": "stega_stamp_decoder/Shape_7", "op": "Shape", "input": ["stega_stamp_decoder/clip_by_value"], "attr": {"T": {"type": "DT_INT32"}, "out_type": {"type": "DT_INT32"}}, "experimentalType": {"typeId": "TFT_PRODUCT", "args": [{"typeId": "TFT_SHAPE_TENSOR", "args": [{"typeId": "TFT_INT32"}]}]}}, {"name": "stega_stamp_decoder/Cast_4", "op": "Cast", "input": ["stega_stamp_decoder/clip_by_value"], "attr": {"SrcT": {"type": "DT_INT32"}, "DstT": {"type": "DT_FLOAT"}, "Truncate": {"b": false}}}, {"name": "stega_stamp_encoder_1/conv2d_transpose_4/BiasAdd", "op": "BiasAdd", "input": ["stega_stamp_encoder_1/conv2d_transpose_4/conv2d_transpose", "stega_stamp_encoder/conv2d_transpose_4/bias"], "attr": {"data_format": {"s": "TkhXQw=="}, "T": {"type": "DT_FLOAT"}}}, {"name": "stega_stamp_decoder/sub_8", "op": "Sub", "input": ["stega_stamp_decoder/mul_3", "stega_stamp_decoder/Cast_6"], "attr": {"T": {"type": "DT_FLOAT"}}}, {"name": "stega_stamp_decoder/sub_12", "op": "Sub", "input": ["stega_stamp_decoder/mul_3", "stega_stamp_decoder/Cast_6"], "attr": {"T": {"type": "DT_FLOAT"}}}, {"name": "stega_stamp_decoder/Cast_7", "op": "Cast", "input": ["stega_stamp_decoder/clip_by_value_3"], "attr": {"SrcT": {"type": "DT_INT32"}, "DstT": {"type": "DT_FLOAT"}, "Truncate": {"b": false}}}, {"name": "stega_stamp_decoder/Cast_5", "op": "Cast", "input": ["stega_stamp_decoder/clip_by_value_1"], "attr": {"SrcT": {"type": "DT_INT32"}, "DstT": {"type": "DT_FLOAT"}, "Truncate": {"b": false}}}, {"name": "stega_stamp_decoder/Shape_8", "op": "Shape", "input": ["stega_stamp_decoder/clip_by_value_1"], "attr": {"T": {"type": "DT_INT32"}, "out_type": {"type": "DT_INT32"}}, "experimentalType": {"typeId": "TFT_PRODUCT", "args": [{"typeId": "TFT_SHAPE_TENSOR", "args": [{"typeId": "TFT_INT32"}]}]}}, {"name": "stega_stamp_decoder/Shape_9", "op": "Shape", "input": ["stega_stamp_decoder/clip_by_value_1"], "attr": {"T": {"type": "DT_INT32"}, "out_type": {"type": "DT_INT32"}}, "experimentalType": {"typeId": "TFT_PRODUCT", "args": [{"typeId": "TFT_SHAPE_TENSOR", "args": [{"typeId": "TFT_INT32"}]}]}}, {"name": "stega_stamp_decoder/strided_slice_8", "op": "StridedSlice", "input": ["stega_stamp_decoder/Shape_6", "stega_stamp_decoder/strided_slice_8/stack", "stega_stamp_decoder/strided_slice_8/stack_1", "stega_stamp_decoder/strided_slice_8/stack_2"], "attr": {"shrink_axis_mask": {"i": "1"}, "Index": {"type": "DT_INT32"}, "new_axis_mask": {"i": "0"}, "begin_mask": {"i": "0"}, "T": {"type": "DT_INT32"}, "end_mask": {"i": "0"}, "ellipsis_mask": {"i": "0"}}}, {"name": "stega_stamp_decoder/strided_slice_9", "op": "StridedSlice", "input": ["stega_stamp_decoder/Shape_6", "stega_stamp_decoder/strided_slice_9/stack", "stega_stamp_decoder/strided_slice_9/stack_1", "stega_stamp_decoder/strided_slice_9/stack_2"], "attr": {"shrink_axis_mask": {"i": "1"}, "new_axis_mask": {"i": "0"}, "Index": {"type": "DT_INT32"}, "begin_mask": {"i": "0"}, "T": {"type": "DT_INT32"}, "end_mask": {"i": "0"}, "ellipsis_mask": {"i": "0"}}}, {"name": "stega_stamp_decoder/strided_slice_10", "op": "StridedSlice", "input": ["stega_stamp_decoder/Shape_6", "stega_stamp_decoder/strided_slice_10/stack", "stega_stamp_decoder/strided_slice_10/stack_1", "stega_stamp_decoder/strided_slice_10/stack_2"], "attr": {"shrink_axis_mask": {"i": "1"}, "new_axis_mask": {"i": "0"}, "Index": {"type": "DT_INT32"}, "begin_mask": {"i": "0"}, "T": {"type": "DT_INT32"}, "end_mask": {"i": "0"}, "ellipsis_mask": {"i": "0"}}}, {"name": "stega_stamp_decoder/strided_slice_11", "op": "StridedSlice", "input": ["stega_stamp_decoder/Shape_7", "stega_stamp_decoder/strided_slice_11/stack", "stega_stamp_decoder/strided_slice_11/stack_1", "stega_stamp_decoder/strided_slice_11/stack_2"], "attr": {"shrink_axis_mask": {"i": "1"}, "new_axis_mask": {"i": "0"}, "Index": {"type": "DT_INT32"}, "begin_mask": {"i": "0"}, "end_mask": {"i": "0"}, "T": {"type": "DT_INT32"}, "ellipsis_mask": {"i": "0"}}}, {"name": "stega_stamp_decoder/strided_slice_12", "op": "StridedSlice", "input": ["stega_stamp_decoder/Shape_7", "stega_stamp_decoder/strided_slice_12/stack", "stega_stamp_decoder/strided_slice_12/stack_1", "stega_stamp_decoder/strided_slice_12/stack_2"], "attr": {"shrink_axis_mask": {"i": "1"}, "new_axis_mask": {"i": "0"}, "Index": {"type": "DT_INT32"}, "begin_mask": {"i": "0"}, "T": {"type": "DT_INT32"}, "end_mask": {"i": "0"}, "ellipsis_mask": {"i": "0"}}}, {"name": "stega_stamp_decoder/strided_slice_13", "op": "StridedSlice", "input": ["stega_stamp_decoder/Shape_7", "stega_stamp_decoder/strided_slice_13/stack", "stega_stamp_decoder/strided_slice_13/stack_1", "stega_stamp_decoder/strided_slice_13/stack_2"], "attr": {"shrink_axis_mask": {"i": "1"}, "new_axis_mask": {"i": "0"}, "Index": {"type": "DT_INT32"}, "begin_mask": {"i": "0"}, "end_mask": {"i": "0"}, "T": {"type": "DT_INT32"}, "ellipsis_mask": {"i": "0"}}}, {"name": "stega_stamp_decoder/sub_9", "op": "Sub", "input": ["stega_stamp_decoder/mul_1", "stega_stamp_decoder/Cast_4"], "attr": {"T": {"type": "DT_FLOAT"}}}, {"name": "stega_stamp_decoder/sub_11", "op": "Sub", "input": ["stega_stamp_decoder/mul_1", "stega_stamp_decoder/Cast_4"], "attr": {"T": {"type": "DT_FLOAT"}}}, {"name": "stega_stamp_encoder_1/conv2d_transpose_4/Relu", "op": "Relu", "input": ["stega_stamp_encoder_1/conv2d_transpose_4/BiasAdd"], "attr": {"T": {"type": "DT_FLOAT"}}}, {"name": "stega_stamp_decoder/sub_6", "op": "Sub", "input": ["stega_stamp_decoder/Cast_7", "stega_stamp_decoder/mul_3"], "attr": {"T": {"type": "DT_FLOAT"}}}, {"name": "stega_stamp_decoder/sub_10", "op": "Sub", "input": ["stega_stamp_decoder/Cast_7", "stega_stamp_decoder/mul_3"], "attr": {"T": {"type": "DT_FLOAT"}}}, {"name": "stega_stamp_decoder/sub_5", "op": "Sub", "input": ["stega_stamp_decoder/Cast_5", "stega_stamp_decoder/mul_1"], "attr": {"T": {"type": "DT_FLOAT"}}}, {"name": "stega_stamp_decoder/sub_7", "op": "Sub", "input": ["stega_stamp_decoder/Cast_5", "stega_stamp_decoder/mul_1"], "attr": {"T": {"type": "DT_FLOAT"}}}, {"name": "stega_stamp_decoder/strided_slice_14", "op": "StridedSlice", "input": ["stega_stamp_decoder/Shape_8", "stega_stamp_decoder/strided_slice_14/stack", "stega_stamp_decoder/strided_slice_14/stack_1", "stega_stamp_decoder/strided_slice_14/stack_2"], "attr": {"shrink_axis_mask": {"i": "1"}, "Index": {"type": "DT_INT32"}, "new_axis_mask": {"i": "0"}, "begin_mask": {"i": "0"}, "T": {"type": "DT_INT32"}, "end_mask": {"i": "0"}, "ellipsis_mask": {"i": "0"}}}, {"name": "stega_stamp_decoder/strided_slice_15", "op": "StridedSlice", "input": ["stega_stamp_decoder/Shape_8", "stega_stamp_decoder/strided_slice_15/stack", "stega_stamp_decoder/strided_slice_15/stack_1", "stega_stamp_decoder/strided_slice_15/stack_2"], "attr": {"shrink_axis_mask": {"i": "1"}, "new_axis_mask": {"i": "0"}, "Index": {"type": "DT_INT32"}, "begin_mask": {"i": "0"}, "T": {"type": "DT_INT32"}, "end_mask": {"i": "0"}, "ellipsis_mask": {"i": "0"}}}, {"name": "stega_stamp_decoder/strided_slice_16", "op": "StridedSlice", "input": ["stega_stamp_decoder/Shape_8", "stega_stamp_decoder/strided_slice_16/stack", "stega_stamp_decoder/strided_slice_16/stack_1", "stega_stamp_decoder/strided_slice_16/stack_2"], "attr": {"shrink_axis_mask": {"i": "1"}, "new_axis_mask": {"i": "0"}, "Index": {"type": "DT_INT32"}, "begin_mask": {"i": "0"}, "end_mask": {"i": "0"}, "T": {"type": "DT_INT32"}, "ellipsis_mask": {"i": "0"}}}, {"name": "stega_stamp_decoder/strided_slice_17", "op": "StridedSlice", "input": ["stega_stamp_decoder/Shape_9", "stega_stamp_decoder/strided_slice_17/stack", "stega_stamp_decoder/strided_slice_17/stack_1", "stega_stamp_decoder/strided_slice_17/stack_2"], "attr": {"shrink_axis_mask": {"i": "1"}, "new_axis_mask": {"i": "0"}, "Index": {"type": "DT_INT32"}, "begin_mask": {"i": "0"}, "T": {"type": "DT_INT32"}, "end_mask": {"i": "0"}, "ellipsis_mask": {"i": "0"}}}, {"name": "stega_stamp_decoder/strided_slice_18", "op": "StridedSlice", "input": ["stega_stamp_decoder/Shape_9", "stega_stamp_decoder/strided_slice_18/stack", "stega_stamp_decoder/strided_slice_18/stack_1", "stega_stamp_decoder/strided_slice_18/stack_2"], "attr": {"shrink_axis_mask": {"i": "1"}, "Index": {"type": "DT_INT32"}, "new_axis_mask": {"i": "0"}, "begin_mask": {"i": "0"}, "T": {"type": "DT_INT32"}, "end_mask": {"i": "0"}, "ellipsis_mask": {"i": "0"}}}, {"name": "stega_stamp_decoder/strided_slice_19", "op": "StridedSlice", "input": ["stega_stamp_decoder/Shape_9", "stega_stamp_decoder/strided_slice_19/stack", "stega_stamp_decoder/strided_slice_19/stack_1", "stega_stamp_decoder/strided_slice_19/stack_2"], "attr": {"shrink_axis_mask": {"i": "1"}, "Index": {"type": "DT_INT32"}, "new_axis_mask": {"i": "0"}, "begin_mask": {"i": "0"}, "T": {"type": "DT_INT32"}, "end_mask": {"i": "0"}, "ellipsis_mask": {"i": "0"}}}, {"name": "stega_stamp_decoder/range", "op": "Range", "input": ["stega_stamp_decoder/range/start", "stega_stamp_decoder/strided_slice_8", "stega_stamp_decoder/range/delta"], "attr": {"Tidx": {"type": "DT_INT32"}}}, {"name": "stega_stamp_decoder/Reshape_4/shape", "op": "Pack", "input": ["stega_stamp_decoder/strided_slice_8", "stega_stamp_decoder/Reshape_4/shape/1", "stega_stamp_decoder/Reshape_4/shape/2"], "attr": {"N": {"i": "3"}, "axis": {"i": "0"}, "T": {"type": "DT_INT32"}}}, {"name": "stega_stamp_decoder/Tile_1/multiples", "op": "Pack", "input": ["stega_stamp_decoder/Tile_1/multiples/0", "stega_stamp_decoder/strided_slice_9", "stega_stamp_decoder/strided_slice_10"], "attr": {"N": {"i": "3"}, "axis": {"i": "0"}, "T": {"type": "DT_INT32"}}}, {"name": "stega_stamp_decoder/range_1", "op": "Range", "input": ["stega_stamp_decoder/range_1/start", "stega_stamp_decoder/strided_slice_11", "stega_stamp_decoder/range_1/delta"], "attr": {"Tidx": {"type": "DT_INT32"}}}, {"name": "stega_stamp_decoder/Reshape_5/shape", "op": "Pack", "input": ["stega_stamp_decoder/strided_slice_11", "stega_stamp_decoder/Reshape_5/shape/1", "stega_stamp_decoder/Reshape_5/shape/2"], "attr": {"N": {"i": "3"}, "axis": {"i": "0"}, "T": {"type": "DT_INT32"}}}, {"name": "stega_stamp_decoder/Tile_2/multiples", "op": "Pack", "input": ["stega_stamp_decoder/Tile_2/multiples/0", "stega_stamp_decoder/strided_slice_12", "stega_stamp_decoder/strided_slice_13"], "attr": {"N": {"i": "3"}, "axis": {"i": "0"}, "T": {"type": "DT_INT32"}}}, {"name": "stega_stamp_decoder/mul_7", "op": "Mul", "input": ["stega_stamp_decoder/sub_11", "stega_stamp_decoder/sub_12"], "attr": {"T": {"type": "DT_FLOAT"}}}, {"name": "stega_stamp_encoder_1/concatenate_12/concat", "op": "ConcatV2", "input": ["stega_stamp_encoder_1/conv2d_transpose_4/Relu", "stega_stamp_encoder_1/conv2d_8/Relu", "stega_stamp_encoder_1/concatenate_12/concat/axis"], "attr": {"N": {"i": "2"}, "T": {"type": "DT_FLOAT"}, "Tidx": {"type": "DT_INT32"}}}, {"name": "stega_stamp_decoder/mul_6", "op": "Mul", "input": ["stega_stamp_decoder/sub_9", "stega_stamp_decoder/sub_10"], "attr": {"T": {"type": "DT_FLOAT"}}}, {"name": "stega_stamp_decoder/mul_4", "op": "Mul", "input": ["stega_stamp_decoder/sub_5", "stega_stamp_decoder/sub_6"], "attr": {"T": {"type": "DT_FLOAT"}}}, {"name": "stega_stamp_decoder/mul_5", "op": "Mul", "input": ["stega_stamp_decoder/sub_7", "stega_stamp_decoder/sub_8"], "attr": {"T": {"type": "DT_FLOAT"}}}, {"name": "stega_stamp_decoder/range_2", "op": "Range", "input": ["stega_stamp_decoder/range_2/start", "stega_stamp_decoder/strided_slice_14", "stega_stamp_decoder/range_2/delta"], "attr": {"Tidx": {"type": "DT_INT32"}}}, {"name": "stega_stamp_decoder/Reshape_6/shape", "op": "Pack", "input": ["stega_stamp_decoder/strided_slice_14", "stega_stamp_decoder/Reshape_6/shape/1", "stega_stamp_decoder/Reshape_6/shape/2"], "attr": {"N": {"i": "3"}, "axis": {"i": "0"}, "T": {"type": "DT_INT32"}}}, {"name": "stega_stamp_decoder/Tile_3/multiples", "op": "Pack", "input": ["stega_stamp_decoder/Tile_3/multiples/0", "stega_stamp_decoder/strided_slice_15", "stega_stamp_decoder/strided_slice_16"], "attr": {"N": {"i": "3"}, "axis": {"i": "0"}, "T": {"type": "DT_INT32"}}}, {"name": "stega_stamp_decoder/range_3", "op": "Range", "input": ["stega_stamp_decoder/range_3/start", "stega_stamp_decoder/strided_slice_17", "stega_stamp_decoder/range_3/delta"], "attr": {"Tidx": {"type": "DT_INT32"}}}, {"name": "stega_stamp_decoder/Reshape_7/shape", "op": "Pack", "input": ["stega_stamp_decoder/strided_slice_17", "stega_stamp_decoder/Reshape_7/shape/1", "stega_stamp_decoder/Reshape_7/shape/2"], "attr": {"N": {"i": "3"}, "axis": {"i": "0"}, "T": {"type": "DT_INT32"}}}, {"name": "stega_stamp_decoder/Tile_4/multiples", "op": "Pack", "input": ["stega_stamp_decoder/Tile_4/multiples/0", "stega_stamp_decoder/strided_slice_18", "stega_stamp_decoder/strided_slice_19"], "attr": {"N": {"i": "3"}, "axis": {"i": "0"}, "T": {"type": "DT_INT32"}}}, {"name": "stega_stamp_decoder/Reshape_4", "op": "Reshape", "input": ["stega_stamp_decoder/range", "stega_stamp_decoder/Reshape_4/shape"], "attr": {"T": {"type": "DT_INT32"}, "Tshape": {"type": "DT_INT32"}}}, {"name": "stega_stamp_decoder/Reshape_5", "op": "Reshape", "input": ["stega_stamp_decoder/range_1", "stega_stamp_decoder/Reshape_5/shape"], "attr": {"T": {"type": "DT_INT32"}, "Tshape": {"type": "DT_INT32"}}}, {"name": "stega_stamp_decoder/ExpandDims_4", "op": "ExpandDims", "input": ["stega_stamp_decoder/mul_7", "stega_stamp_decoder/ExpandDims_4/dim"], "attr": {"Tdim": {"type": "DT_INT32"}, "T": {"type": "DT_FLOAT"}}}, {"name": "stega_stamp_encoder_1/conv2d_transpose_5/Shape", "op": "Shape", "input": ["stega_stamp_encoder_1/concatenate_12/concat"], "attr": {"T": {"type": "DT_FLOAT"}, "out_type": {"type": "DT_INT32"}}, "experimentalType": {"typeId": "TFT_PRODUCT", "args": [{"typeId": "TFT_SHAPE_TENSOR", "args": [{"typeId": "TFT_INT32"}]}]}}, {"name": "stega_stamp_decoder/ExpandDims_3", "op": "ExpandDims", "input": ["stega_stamp_decoder/mul_6", "stega_stamp_decoder/ExpandDims_3/dim"], "attr": {"Tdim": {"type": "DT_INT32"}, "T": {"type": "DT_FLOAT"}}}, {"name": "stega_stamp_decoder/ExpandDims_1", "op": "ExpandDims", "input": ["stega_stamp_decoder/mul_4", "stega_stamp_decoder/ExpandDims_1/dim"], "attr": {"Tdim": {"type": "DT_INT32"}, "T": {"type": "DT_FLOAT"}}}, {"name": "stega_stamp_decoder/ExpandDims_2", "op": "ExpandDims", "input": ["stega_stamp_decoder/mul_5", "stega_stamp_decoder/ExpandDims_2/dim"], "attr": {"Tdim": {"type": "DT_INT32"}, "T": {"type": "DT_FLOAT"}}}, {"name": "stega_stamp_decoder/Reshape_6", "op": "Reshape", "input": ["stega_stamp_decoder/range_2", "stega_stamp_decoder/Reshape_6/shape"], "attr": {"T": {"type": "DT_INT32"}, "Tshape": {"type": "DT_INT32"}}}, {"name": "stega_stamp_decoder/Reshape_7", "op": "Reshape", "input": ["stega_stamp_decoder/range_3", "stega_stamp_decoder/Reshape_7/shape"], "attr": {"T": {"type": "DT_INT32"}, "Tshape": {"type": "DT_INT32"}}}, {"name": "stega_stamp_decoder/Tile_1", "op": "Tile", "input": ["stega_stamp_decoder/Reshape_4", "stega_stamp_decoder/Tile_1/multiples"], "attr": {"T": {"type": "DT_INT32"}, "Tmultiples": {"type": "DT_INT32"}}}, {"name": "stega_stamp_decoder/Tile_2", "op": "Tile", "input": ["stega_stamp_decoder/Reshape_5", "stega_stamp_decoder/Tile_2/multiples"], "attr": {"T": {"type": "DT_INT32"}, "Tmultiples": {"type": "DT_INT32"}}}, {"name": "stega_stamp_encoder_1/conv2d_transpose_5/strided_slice", "op": "StridedSlice", "input": ["stega_stamp_encoder_1/conv2d_transpose_5/Shape", "stega_stamp_encoder_1/conv2d_transpose_5/strided_slice/stack", "stega_stamp_encoder_1/conv2d_transpose_5/strided_slice/stack_1", "stega_stamp_encoder_1/conv2d_transpose_5/strided_slice/stack_2"], "attr": {"shrink_axis_mask": {"i": "1"}, "new_axis_mask": {"i": "0"}, "Index": {"type": "DT_INT32"}, "begin_mask": {"i": "0"}, "T": {"type": "DT_INT32"}, "end_mask": {"i": "0"}, "ellipsis_mask": {"i": "0"}}}, {"name": "stega_stamp_decoder/Tile_3", "op": "Tile", "input": ["stega_stamp_decoder/Reshape_6", "stega_stamp_decoder/Tile_3/multiples"], "attr": {"T": {"type": "DT_INT32"}, "Tmultiples": {"type": "DT_INT32"}}}, {"name": "stega_stamp_decoder/Tile_4", "op": "Tile", "input": ["stega_stamp_decoder/Reshape_7", "stega_stamp_decoder/Tile_4/multiples"], "attr": {"T": {"type": "DT_INT32"}, "Tmultiples": {"type": "DT_INT32"}}}, {"name": "stega_stamp_decoder/stack_2", "op": "Pack", "input": ["stega_stamp_decoder/Tile_1", "stega_stamp_decoder/clip_by_value_2", "stega_stamp_decoder/clip_by_value"], "attr": {"N": {"i": "3"}, "axis": {"i": "3"}, "T": {"type": "DT_INT32"}}}, {"name": "stega_stamp_decoder/stack_3", "op": "Pack", "input": ["stega_stamp_decoder/Tile_2", "stega_stamp_decoder/clip_by_value_3", "stega_stamp_decoder/clip_by_value"], "attr": {"N": {"i": "3"}, "axis": {"i": "3"}, "T": {"type": "DT_INT32"}}}, {"name": "stega_stamp_encoder_1/conv2d_transpose_5/stack", "op": "Pack", "input": ["stega_stamp_encoder_1/conv2d_transpose_5/strided_slice", "stega_stamp_encoder_1/conv2d_transpose_5/stack/1", "stega_stamp_encoder_1/conv2d_transpose_5/stack/2", "stega_stamp_encoder_1/conv2d_transpose_5/stack/3"], "attr": {"N": {"i": "4"}, "axis": {"i": "0"}, "T": {"type": "DT_INT32"}}}, {"name": "stega_stamp_decoder/stack_4", "op": "Pack", "input": ["stega_stamp_decoder/Tile_3", "stega_stamp_decoder/clip_by_value_2", "stega_stamp_decoder/clip_by_value_1"], "attr": {"N": {"i": "3"}, "axis": {"i": "3"}, "T": {"type": "DT_INT32"}}}, {"name": "stega_stamp_decoder/stack_5", "op": "Pack", "input": ["stega_stamp_decoder/Tile_4", "stega_stamp_decoder/clip_by_value_3", "stega_stamp_decoder/clip_by_value_1"], "attr": {"N": {"i": "3"}, "axis": {"i": "3"}, "T": {"type": "DT_INT32"}}}, {"name": "stega_stamp_decoder/GatherNd", "op": "GatherNd", "input": ["stega_stamp_decoder/sub", "stega_stamp_decoder/stack_2"], "attr": {"Tparams": {"type": "DT_FLOAT"}, "Tindices": {"type": "DT_INT32"}}}, {"name": "stega_stamp_decoder/GatherNd_1", "op": "GatherNd", "input": ["stega_stamp_decoder/sub", "stega_stamp_decoder/stack_3"], "attr": {"Tparams": {"type": "DT_FLOAT"}, "Tindices": {"type": "DT_INT32"}}}, {"name": "stega_stamp_encoder_1/conv2d_transpose_5/conv2d_transpose", "op": "Conv2DBackpropInput", "input": ["stega_stamp_encoder_1/conv2d_transpose_5/stack", "stega_stamp_encoder/conv2d_transpose_5/kernel", "stega_stamp_encoder_1/concatenate_12/concat"], "attr": {"padding": {"s": "U0FNRQ=="}, "data_format": {"s": "TkhXQw=="}, "strides": {"list": {"i": ["1", "2", "2", "1"]}}, "use_cudnn_on_gpu": {"b": true}, "T": {"type": "DT_FLOAT"}, "explicit_paddings": {"list": {}}, "dilations": {"list": {"i": ["1", "1", "1", "1"]}}}}, {"name": "stega_stamp_decoder/GatherNd_2", "op": "GatherNd", "input": ["stega_stamp_decoder/sub", "stega_stamp_decoder/stack_4"], "attr": {"Tparams": {"type": "DT_FLOAT"}, "Tindices": {"type": "DT_INT32"}}}, {"name": "stega_stamp_decoder/GatherNd_3", "op": "GatherNd", "input": ["stega_stamp_decoder/sub", "stega_stamp_decoder/stack_5"], "attr": {"Tparams": {"type": "DT_FLOAT"}, "Tindices": {"type": "DT_INT32"}}}, {"name": "stega_stamp_decoder/mul_8", "op": "Mul", "input": ["stega_stamp_decoder/ExpandDims_1", "stega_stamp_decoder/GatherNd"], "attr": {"T": {"type": "DT_FLOAT"}}}, {"name": "stega_stamp_decoder/mul_9", "op": "Mul", "input": ["stega_stamp_decoder/ExpandDims_2", "stega_stamp_decoder/GatherNd_1"], "attr": {"T": {"type": "DT_FLOAT"}}}, {"name": "stega_stamp_encoder_1/conv2d_transpose_5/BiasAdd", "op": "BiasAdd", "input": ["stega_stamp_encoder_1/conv2d_transpose_5/conv2d_transpose", "stega_stamp_encoder/conv2d_transpose_5/bias"], "attr": {"data_format": {"s": "TkhXQw=="}, "T": {"type": "DT_FLOAT"}}}, {"name": "stega_stamp_decoder/mul_10", "op": "Mul", "input": ["stega_stamp_decoder/ExpandDims_3", "stega_stamp_decoder/GatherNd_2"], "attr": {"T": {"type": "DT_FLOAT"}}}, {"name": "stega_stamp_decoder/mul_11", "op": "Mul", "input": ["stega_stamp_decoder/ExpandDims_4", "stega_stamp_decoder/GatherNd_3"], "attr": {"T": {"type": "DT_FLOAT"}}}, {"name": "stega_stamp_encoder_1/conv2d_transpose_5/Relu", "op": "Relu", "input": ["stega_stamp_encoder_1/conv2d_transpose_5/BiasAdd"], "attr": {"T": {"type": "DT_FLOAT"}}}, {"name": "stega_stamp_decoder/AddN", "op": "AddN", "input": ["stega_stamp_decoder/mul_8", "stega_stamp_decoder/mul_9", "stega_stamp_decoder/mul_10", "stega_stamp_decoder/mul_11"], "attr": {"N": {"i": "4"}, "T": {"type": "DT_FLOAT"}}}, {"name": "stega_stamp_encoder_1/concatenate_13/concat", "op": "ConcatV2", "input": ["stega_stamp_encoder_1/conv2d_transpose_5/Relu", "stega_stamp_encoder_1/conv2d_7/Relu", "stega_stamp_encoder_1/concatenate_13/concat/axis"], "attr": {"N": {"i": "2"}, "Tidx": {"type": "DT_INT32"}, "T": {"type": "DT_FLOAT"}}}, {"name": "stega_stamp_decoder/sequential_2/conv2d_15/Relu", "op": "_FusedConv2D", "input": ["stega_stamp_decoder/AddN", "cond_3/stega_stamp_decoder/sequential_2/conv2d_15/kernel", "cond_3/stega_stamp_decoder/sequential_2/conv2d_15/bias"], "device": "/device:CPU:0", "attr": {"num_host_args": {"i": "0"}, "data_format": {"s": "TkhXQw=="}, "filter_format": {"s": "SFdJTw=="}, "fused_ops": {"list": {"s": ["Qmlhc0FkZA==", "UmVsdQ=="]}}, "num_args": {"i": "1"}, "strides": {"list": {"i": ["1", "2", "2", "1"]}}, "TArgs": {"list": {"type": ["DT_FLOAT"]}}, "padding": {"s": "U0FNRQ=="}, "use_cudnn_on_gpu": {"b": true}, "leakyrelu_alpha": {"f": 0.2}, "epsilon": {"f": 0.0}, "T": {"type": "DT_FLOAT"}, "explicit_paddings": {"list": {}}, "dilations": {"list": {"i": ["1", "1", "1", "1"]}}}}, {"name": "stega_stamp_encoder_1/conv2d_11/BiasAdd", "op": "_FusedConv2D", "input": ["stega_stamp_encoder_1/concatenate_13/concat", "stega_stamp_encoder/conv2d_11/kernel", "stega_stamp_encoder/conv2d_11/bias"], "device": "/device:CPU:0", "attr": {"num_host_args": {"i": "0"}, "data_format": {"s": "TkhXQw=="}, "filter_format": {"s": "SFdJTw=="}, "strides": {"list": {"i": ["1", "1", "1", "1"]}}, "num_args": {"i": "1"}, "fused_ops": {"list": {"s": ["Qmlhc0FkZA=="]}}, "TArgs": {"list": {"type": ["DT_FLOAT"]}}, "padding": {"s": "U0FNRQ=="}, "use_cudnn_on_gpu": {"b": true}, "leakyrelu_alpha": {"f": 0.2}, "epsilon": {"f": 0.0}, "T": {"type": "DT_FLOAT"}, "explicit_paddings": {"list": {}}, "dilations": {"list": {"i": ["1", "1", "1", "1"]}}}}, {"name": "stega_stamp_decoder/sequential_2/conv2d_16/Relu", "op": "_FusedConv2D", "input": ["stega_stamp_decoder/sequential_2/conv2d_15/Relu", "cond_3/stega_stamp_decoder/sequential_2/conv2d_16/kernel", "cond_3/stega_stamp_decoder/sequential_2/conv2d_16/bias"], "device": "/device:CPU:0", "attr": {"num_host_args": {"i": "0"}, "data_format": {"s": "TkhXQw=="}, "filter_format": {"s": "SFdJTw=="}, "fused_ops": {"list": {"s": ["Qmlhc0FkZA==", "UmVsdQ=="]}}, "num_args": {"i": "1"}, "strides": {"list": {"i": ["1", "1", "1", "1"]}}, "TArgs": {"list": {"type": ["DT_FLOAT"]}}, "padding": {"s": "U0FNRQ=="}, "use_cudnn_on_gpu": {"b": true}, "leakyrelu_alpha": {"f": 0.2}, "epsilon": {"f": 0.0}, "T": {"type": "DT_FLOAT"}, "explicit_paddings": {"list": {}}, "dilations": {"list": {"i": ["1", "1", "1", "1"]}}}}, {"name": "add_44", "op": "AddV2", "input": ["stega_stamp_encoder_1/conv2d_11/BiasAdd", "input_hide"], "attr": {"T": {"type": "DT_FLOAT"}}}, {"name": "stega_stamp_decoder/sequential_2/conv2d_17/Relu", "op": "_FusedConv2D", "input": ["stega_stamp_decoder/sequential_2/conv2d_16/Relu", "cond_3/stega_stamp_decoder/sequential_2/conv2d_17/kernel", "cond_3/stega_stamp_decoder/sequential_2/conv2d_17/bias"], "device": "/device:CPU:0", "attr": {"num_host_args": {"i": "0"}, "data_format": {"s": "TkhXQw=="}, "filter_format": {"s": "SFdJTw=="}, "fused_ops": {"list": {"s": ["Qmlhc0FkZA==", "UmVsdQ=="]}}, "num_args": {"i": "1"}, "strides": {"list": {"i": ["1", "2", "2", "1"]}}, "TArgs": {"list": {"type": ["DT_FLOAT"]}}, "padding": {"s": "U0FNRQ=="}, "use_cudnn_on_gpu": {"b": true}, "leakyrelu_alpha": {"f": 0.2}, "epsilon": {"f": 0.0}, "T": {"type": "DT_FLOAT"}, "explicit_paddings": {"list": {}}, "dilations": {"list": {"i": ["1", "1", "1", "1"]}}}}, {"name": "clip_by_value_34/Minimum", "op": "Minimum", "input": ["add_44", "clip_by_value_34/Minimum/y"], "attr": {"T": {"type": "DT_FLOAT"}}}, {"name": "stega_stamp_decoder/sequential_2/conv2d_18/Relu", "op": "_FusedConv2D", "input": ["stega_stamp_decoder/sequential_2/conv2d_17/Relu", "cond_3/stega_stamp_decoder/sequential_2/conv2d_18/kernel", "cond_3/stega_stamp_decoder/sequential_2/conv2d_18/bias"], "device": "/device:CPU:0", "attr": {"num_host_args": {"i": "0"}, "data_format": {"s": "TkhXQw=="}, "filter_format": {"s": "SFdJTw=="}, "fused_ops": {"list": {"s": ["Qmlhc0FkZA==", "UmVsdQ=="]}}, "num_args": {"i": "1"}, "strides": {"list": {"i": ["1", "1", "1", "1"]}}, "TArgs": {"list": {"type": ["DT_FLOAT"]}}, "padding": {"s": "U0FNRQ=="}, "use_cudnn_on_gpu": {"b": true}, "leakyrelu_alpha": {"f": 0.2}, "epsilon": {"f": 0.0}, "T": {"type": "DT_FLOAT"}, "explicit_paddings": {"list": {}}, "dilations": {"list": {"i": ["1", "1", "1", "1"]}}}}, {"name": "clip_by_value_34", "op": "Maximum", "input": ["clip_by_value_34/Minimum", "clip_by_value_34/y"], "attr": {"T": {"type": "DT_FLOAT"}}}, {"name": "stega_stamp_decoder/sequential_2/conv2d_19/Relu", "op": "_FusedConv2D", "input": ["stega_stamp_decoder/sequential_2/conv2d_18/Relu", "cond_3/stega_stamp_decoder/sequential_2/conv2d_19/kernel", "cond_3/stega_stamp_decoder/sequential_2/conv2d_19/bias"], "device": "/device:CPU:0", "attr": {"num_host_args": {"i": "0"}, "data_format": {"s": "TkhXQw=="}, "filter_format": {"s": "SFdJTw=="}, "fused_ops": {"list": {"s": ["Qmlhc0FkZA==", "UmVsdQ=="]}}, "num_args": {"i": "1"}, "strides": {"list": {"i": ["1", "2", "2", "1"]}}, "TArgs": {"list": {"type": ["DT_FLOAT"]}}, "padding": {"s": "U0FNRQ=="}, "use_cudnn_on_gpu": {"b": true}, "leakyrelu_alpha": {"f": 0.2}, "epsilon": {"f": 0.0}, "T": {"type": "DT_FLOAT"}, "explicit_paddings": {"list": {}}, "dilations": {"list": {"i": ["1", "1", "1", "1"]}}}}, {"name": "stega_stamp_decoder/sequential_2/conv2d_20/Relu", "op": "_FusedConv2D", "input": ["stega_stamp_decoder/sequential_2/conv2d_19/Relu", "cond_3/stega_stamp_decoder/sequential_2/conv2d_20/kernel", "cond_3/stega_stamp_decoder/sequential_2/conv2d_20/bias"], "device": "/device:CPU:0", "attr": {"num_host_args": {"i": "0"}, "data_format": {"s": "TkhXQw=="}, "filter_format": {"s": "SFdJTw=="}, "fused_ops": {"list": {"s": ["Qmlhc0FkZA==", "UmVsdQ=="]}}, "num_args": {"i": "1"}, "strides": {"list": {"i": ["1", "2", "2", "1"]}}, "TArgs": {"list": {"type": ["DT_FLOAT"]}}, "padding": {"s": "U0FNRQ=="}, "use_cudnn_on_gpu": {"b": true}, "leakyrelu_alpha": {"f": 0.2}, "epsilon": {"f": 0.0}, "T": {"type": "DT_FLOAT"}, "explicit_paddings": {"list": {}}, "dilations": {"list": {"i": ["1", "1", "1", "1"]}}}}, {"name": "stega_stamp_decoder/sequential_2/conv2d_21/Relu", "op": "_FusedConv2D", "input": ["stega_stamp_decoder/sequential_2/conv2d_20/Relu", "cond_3/stega_stamp_decoder/sequential_2/conv2d_21/kernel", "cond_3/stega_stamp_decoder/sequential_2/conv2d_21/bias"], "device": "/device:CPU:0", "attr": {"num_host_args": {"i": "0"}, "data_format": {"s": "TkhXQw=="}, "filter_format": {"s": "SFdJTw=="}, "fused_ops": {"list": {"s": ["Qmlhc0FkZA==", "UmVsdQ=="]}}, "num_args": {"i": "1"}, "strides": {"list": {"i": ["1", "2", "2", "1"]}}, "TArgs": {"list": {"type": ["DT_FLOAT"]}}, "padding": {"s": "U0FNRQ=="}, "use_cudnn_on_gpu": {"b": true}, "leakyrelu_alpha": {"f": 0.2}, "epsilon": {"f": 0.0}, "T": {"type": "DT_FLOAT"}, "explicit_paddings": {"list": {}}, "dilations": {"list": {"i": ["1", "1", "1", "1"]}}}}, {"name": "stega_stamp_decoder/sequential_2/flatten_1/Reshape", "op": "Reshape", "input": ["stega_stamp_decoder/sequential_2/conv2d_21/Relu", "stega_stamp_decoder/sequential_2/flatten_1/Const"], "attr": {"T": {"type": "DT_FLOAT"}, "Tshape": {"type": "DT_INT32"}}}, {"name": "stega_stamp_decoder/sequential_2/dense_2/Relu", "op": "_FusedMatMul", "input": ["stega_stamp_decoder/sequential_2/flatten_1/Reshape", "cond_3/stega_stamp_decoder/sequential_2/dense_2/kernel", "cond_3/stega_stamp_decoder/sequential_2/dense_2/bias"], "device": "/device:CPU:0", "attr": {"transpose_a": {"b": false}, "transpose_b": {"b": false}, "fused_ops": {"list": {"s": ["Qmlhc0FkZA==", "UmVsdQ=="]}}, "leakyrelu_alpha": {"f": 0.2}, "num_args": {"i": "1"}, "epsilon": {"f": 0.0}, "T": {"type": "DT_FLOAT"}}}, {"name": "stega_stamp_decoder/sequential_2/dense_3/BiasAdd", "op": "_FusedMatMul", "input": ["stega_stamp_decoder/sequential_2/dense_2/Relu", "cond_3/stega_stamp_decoder/sequential_2/dense_3/kernel", "cond_3/stega_stamp_decoder/sequential_2/dense_3/bias"], "device": "/device:CPU:0", "attr": {"transpose_a": {"b": false}, "transpose_b": {"b": false}, "fused_ops": {"list": {"s": ["Qmlhc0FkZA=="]}}, "num_args": {"i": "1"}, "leakyrelu_alpha": {"f": 0.2}, "epsilon": {"f": 0.0}, "T": {"type": "DT_FLOAT"}}}, {"name": "Sigmoid", "op": "Sigmoid", "input": ["stega_stamp_decoder/sequential_2/dense_3/BiasAdd"], "attr": {"T": {"type": "DT_FLOAT"}}}, {"name": "Round", "op": "Round", "input": ["Sigmoid"], "attr": {"T": {"type": "DT_FLOAT"}}}], "library": {}, "versions": {"producer": 1482}}, "weightsManifest": [{"paths": ["group1-shard1of52.bin", "group1-shard2of52.bin", "group1-shard3of52.bin", "group1-shard4of52.bin", "group1-shard5of52.bin", "group1-shard6of52.bin", "group1-shard7of52.bin", "group1-shard8of52.bin", "group1-shard9of52.bin", "group1-shard10of52.bin", "group1-shard11of52.bin", "group1-shard12of52.bin", "group1-shard13of52.bin", "group1-shard14of52.bin", "group1-shard15of52.bin", "group1-shard16of52.bin", "group1-shard17of52.bin", "group1-shard18of52.bin", "group1-shard19of52.bin", "group1-shard20of52.bin", "group1-shard21of52.bin", "group1-shard22of52.bin", "group1-shard23of52.bin", "group1-shard24of52.bin", "group1-shard25of52.bin", "group1-shard26of52.bin", "group1-shard27of52.bin", "group1-shard28of52.bin", "group1-shard29of52.bin", "group1-shard30of52.bin", "group1-shard31of52.bin", "group1-shard32of52.bin", "group1-shard33of52.bin", "group1-shard34of52.bin", "group1-shard35of52.bin", "group1-shard36of52.bin", "group1-shard37of52.bin", "group1-shard38of52.bin", "group1-shard39of52.bin", "group1-shard40of52.bin", "group1-shard41of52.bin", "group1-shard42of52.bin", "group1-shard43of52.bin", "group1-shard44of52.bin", "group1-shard45of52.bin", "group1-shard46of52.bin", "group1-shard47of52.bin", "group1-shard48of52.bin", "group1-shard49of52.bin", "group1-shard50of52.bin", "group1-shard51of52.bin", "group1-shard52of52.bin"], "weights": [{"name": "stega_stamp_decoder/ExpandDims_1/dim", "shape": [], "dtype": "int32"}, {"name": "stega_stamp_decoder/range/start", "shape": [], "dtype": "int32"}, {"name": "stega_stamp_decoder/range/delta", "shape": [], "dtype": "int32"}, {"name": "stega_stamp_decoder/strided_slice_8/stack", "shape": [1], "dtype": "int32"}, {"name": "stega_stamp_decoder/strided_slice_8/stack_1", "shape": [1], "dtype": "int32"}, {"name": "stega_stamp_decoder/strided_slice_8/stack_2", "shape": [1], "dtype": "int32"}, {"name": "stega_stamp_decoder/Reshape_4/shape/1", "shape": [], "dtype": "int32"}, {"name": "stega_stamp_decoder/Reshape_4/shape/2", "shape": [], "dtype": "int32"}, {"name": "stega_stamp_decoder/Tile_1/multiples/0", "shape": [], "dtype": "int32"}, {"name": "stega_stamp_decoder/strided_slice_9/stack", "shape": [1], "dtype": "int32"}, {"name": "stega_stamp_decoder/strided_slice_9/stack_1", "shape": [1], "dtype": "int32"}, {"name": "stega_stamp_decoder/strided_slice_9/stack_2", "shape": [1], "dtype": "int32"}, {"name": "stega_stamp_decoder/strided_slice_10/stack", "shape": [1], "dtype": "int32"}, {"name": "stega_stamp_decoder/strided_slice_10/stack_1", "shape": [1], "dtype": "int32"}, {"name": "stega_stamp_decoder/strided_slice_10/stack_2", "shape": [1], "dtype": "int32"}, {"name": "stega_stamp_decoder/ExpandDims_2/dim", "shape": [], "dtype": "int32"}, {"name": "stega_stamp_decoder/range_1/start", "shape": [], "dtype": "int32"}, {"name": "stega_stamp_decoder/range_1/delta", "shape": [], "dtype": "int32"}, {"name": "stega_stamp_decoder/strided_slice_11/stack", "shape": [1], "dtype": "int32"}, {"name": "stega_stamp_decoder/strided_slice_11/stack_1", "shape": [1], "dtype": "int32"}, {"name": "stega_stamp_decoder/strided_slice_11/stack_2", "shape": [1], "dtype": "int32"}, {"name": "stega_stamp_decoder/Reshape_5/shape/1", "shape": [], "dtype": "int32"}, {"name": "stega_stamp_decoder/Reshape_5/shape/2", "shape": [], "dtype": "int32"}, {"name": "stega_stamp_decoder/Tile_2/multiples/0", "shape": [], "dtype": "int32"}, {"name": "stega_stamp_decoder/strided_slice_12/stack", "shape": [1], "dtype": "int32"}, {"name": "stega_stamp_decoder/strided_slice_12/stack_1", "shape": [1], "dtype": "int32"}, {"name": "stega_stamp_decoder/strided_slice_12/stack_2", "shape": [1], "dtype": "int32"}, {"name": "stega_stamp_decoder/strided_slice_13/stack", "shape": [1], "dtype": "int32"}, {"name": "stega_stamp_decoder/strided_slice_13/stack_1", "shape": [1], "dtype": "int32"}, {"name": "stega_stamp_decoder/strided_slice_13/stack_2", "shape": [1], "dtype": "int32"}, {"name": "stega_stamp_decoder/ExpandDims_3/dim", "shape": [], "dtype": "int32"}, {"name": "stega_stamp_decoder/range_2/start", "shape": [], "dtype": "int32"}, {"name": "stega_stamp_decoder/range_2/delta", "shape": [], "dtype": "int32"}, {"name": "stega_stamp_decoder/strided_slice_14/stack", "shape": [1], "dtype": "int32"}, {"name": "stega_stamp_decoder/strided_slice_14/stack_1", "shape": [1], "dtype": "int32"}, {"name": "stega_stamp_decoder/strided_slice_14/stack_2", "shape": [1], "dtype": "int32"}, {"name": "stega_stamp_decoder/Reshape_6/shape/1", "shape": [], "dtype": "int32"}, {"name": "stega_stamp_decoder/Reshape_6/shape/2", "shape": [], "dtype": "int32"}, {"name": "stega_stamp_decoder/Tile_3/multiples/0", "shape": [], "dtype": "int32"}, {"name": "stega_stamp_decoder/strided_slice_15/stack", "shape": [1], "dtype": "int32"}, {"name": "stega_stamp_decoder/strided_slice_15/stack_1", "shape": [1], "dtype": "int32"}, {"name": "stega_stamp_decoder/strided_slice_15/stack_2", "shape": [1], "dtype": "int32"}, {"name": "stega_stamp_decoder/strided_slice_16/stack", "shape": [1], "dtype": "int32"}, {"name": "stega_stamp_decoder/strided_slice_16/stack_1", "shape": [1], "dtype": "int32"}, {"name": "stega_stamp_decoder/strided_slice_16/stack_2", "shape": [1], "dtype": "int32"}, {"name": "stega_stamp_decoder/ExpandDims_4/dim", "shape": [], "dtype": "int32"}, {"name": "stega_stamp_decoder/range_3/start", "shape": [], "dtype": "int32"}, {"name": "stega_stamp_decoder/range_3/delta", "shape": [], "dtype": "int32"}, {"name": "stega_stamp_decoder/strided_slice_17/stack", "shape": [1], "dtype": "int32"}, {"name": "stega_stamp_decoder/strided_slice_17/stack_1", "shape": [1], "dtype": "int32"}, {"name": "stega_stamp_decoder/strided_slice_17/stack_2", "shape": [1], "dtype": "int32"}, {"name": "stega_stamp_decoder/Reshape_7/shape/1", "shape": [], "dtype": "int32"}, {"name": "stega_stamp_decoder/Reshape_7/shape/2", "shape": [], "dtype": "int32"}, {"name": "stega_stamp_decoder/Tile_4/multiples/0", "shape": [], "dtype": "int32"}, {"name": "stega_stamp_decoder/strided_slice_18/stack", "shape": [1], "dtype": "int32"}, {"name": "stega_stamp_decoder/strided_slice_18/stack_1", "shape": [1], "dtype": "int32"}, {"name": "stega_stamp_decoder/strided_slice_18/stack_2", "shape": [1], "dtype": "int32"}, {"name": "stega_stamp_decoder/strided_slice_19/stack", "shape": [1], "dtype": "int32"}, {"name": "stega_stamp_decoder/strided_slice_19/stack_1", "shape": [1], "dtype": "int32"}, {"name": "stega_stamp_decoder/strided_slice_19/stack_2", "shape": [1], "dtype": "int32"}, {"name": "stega_stamp_decoder/mul_3/x", "shape": [], "dtype": "float32"}, {"name": "stega_stamp_decoder/sub_4/y", "shape": [], "dtype": "int32"}, {"name": "stega_stamp_decoder/strided_slice_5/stack", "shape": [4], "dtype": "int32"}, {"name": "stega_stamp_decoder/strided_slice_5/stack_1", "shape": [4], "dtype": "int32"}, {"name": "stega_stamp_decoder/strided_slice_5/stack_2", "shape": [4], "dtype": "int32"}, {"name": "stega_stamp_decoder/add_2/y", "shape": [], "dtype": "float32"}, {"name": "stega_stamp_decoder/add_4/y", "shape": [], "dtype": "int32"}, {"name": "stega_stamp_decoder/strided_slice_6/stack", "shape": [1], "dtype": "int32"}, {"name": "stega_stamp_decoder/strided_slice_6/stack_1", "shape": [1], "dtype": "int32"}, {"name": "stega_stamp_decoder/strided_slice_6/stack_2", "shape": [1], "dtype": "int32"}, {"name": "stega_stamp_decoder/sub_1/y", "shape": [], "dtype": "int32"}, {"name": "stega_stamp_decoder/mul_1/x", "shape": [], "dtype": "float32"}, {"name": "stega_stamp_decoder/sub_3/y", "shape": [], "dtype": "int32"}, {"name": "stega_stamp_decoder/ExpandDims", "shape": [1, 3, 160000], "dtype": "float32"}, {"name": "stega_stamp_decoder/stack_1/1", "shape": [], "dtype": "int32"}, {"name": "stega_stamp_decoder/stack_1/2", "shape": [], "dtype": "int32"}, {"name": "cond_3/stega_stamp_decoder/sequential_1/conv2d_12/kernel", "shape": [3, 3, 3, 32], "dtype": "float32"}, {"name": "cond_3/stega_stamp_decoder/sequential_1/conv2d_13/kernel", "shape": [3, 3, 32, 64], "dtype": "float32"}, {"name": "cond_3/stega_stamp_decoder/sequential_1/conv2d_14/kernel", "shape": [3, 3, 64, 128], "dtype": "float32"}, {"name": "stega_stamp_decoder/sequential_1/flatten/Const", "shape": [2], "dtype": "int32"}, {"name": "cond_3/stega_stamp_decoder/sequential_1/dense_1/kernel", "shape": [320000, 128], "dtype": "float32"}, {"name": "W_fc1", "shape": [128, 6], "dtype": "float32"}, {"name": "b_fc1", "shape": [6], "dtype": "float32"}, {"name": "stega_stamp_decoder/strided_slice/stack", "shape": [1], "dtype": "int32"}, {"name": "stega_stamp_decoder/strided_slice/stack_1", "shape": [1], "dtype": "int32"}, {"name": "stega_stamp_decoder/strided_slice/stack_2", "shape": [1], "dtype": "int32"}, {"name": "stega_stamp_decoder/Reshape/shape/1", "shape": [], "dtype": "int32"}, {"name": "stega_stamp_decoder/Reshape/shape/2", "shape": [], "dtype": "int32"}, {"name": "stega_stamp_decoder/strided_slice_3/stack", "shape": [1], "dtype": "int32"}, {"name": "stega_stamp_decoder/strided_slice_3/stack_1", "shape": [1], "dtype": "int32"}, {"name": "stega_stamp_decoder/strided_slice_3/stack_2", "shape": [1], "dtype": "int32"}, {"name": "stega_stamp_decoder/Reshape_3/shape/1", "shape": [], "dtype": "int32"}, {"name": "stega_stamp_decoder/Reshape_3/shape/2", "shape": [], "dtype": "int32"}, {"name": "stega_stamp_decoder/Reshape_3/shape/3", "shape": [], "dtype": "int32"}, {"name": "stega_stamp_decoder/strided_slice_4/stack", "shape": [4], "dtype": "int32"}, {"name": "stega_stamp_decoder/strided_slice_4/stack_1", "shape": [4], "dtype": "int32"}, {"name": "stega_stamp_decoder/strided_slice_4/stack_2", "shape": [4], "dtype": "int32"}, {"name": "stega_stamp_decoder/add_1/y", "shape": [], "dtype": "float32"}, {"name": "stega_stamp_decoder/add_3/y", "shape": [], "dtype": "int32"}, {"name": "stega_stamp_decoder/sub/y", "shape": [], "dtype": "float32"}, {"name": "stega_stamp_decoder/strided_slice_7/stack", "shape": [1], "dtype": "int32"}, {"name": "stega_stamp_decoder/strided_slice_7/stack_1", "shape": [1], "dtype": "int32"}, {"name": "stega_stamp_decoder/strided_slice_7/stack_2", "shape": [1], "dtype": "int32"}, {"name": "stega_stamp_decoder/sub_2/y", "shape": [], "dtype": "int32"}, {"name": "stega_stamp_decoder/zeros", "shape": [], "dtype": "int32"}, {"name": "cond_3/stega_stamp_decoder/sequential_2/conv2d_15/kernel", "shape": [3, 3, 3, 32], "dtype": "float32"}, {"name": "cond_3/stega_stamp_decoder/sequential_2/conv2d_15/bias", "shape": [32], "dtype": "float32"}, {"name": "cond_3/stega_stamp_decoder/sequential_2/conv2d_16/kernel", "shape": [3, 3, 32, 32], "dtype": "float32"}, {"name": "cond_3/stega_stamp_decoder/sequential_2/conv2d_16/bias", "shape": [32], "dtype": "float32"}, {"name": "cond_3/stega_stamp_decoder/sequential_2/conv2d_17/kernel", "shape": [3, 3, 32, 64], "dtype": "float32"}, {"name": "cond_3/stega_stamp_decoder/sequential_2/conv2d_17/bias", "shape": [64], "dtype": "float32"}, {"name": "cond_3/stega_stamp_decoder/sequential_2/conv2d_18/kernel", "shape": [3, 3, 64, 64], "dtype": "float32"}, {"name": "cond_3/stega_stamp_decoder/sequential_2/conv2d_18/bias", "shape": [64], "dtype": "float32"}, {"name": "cond_3/stega_stamp_decoder/sequential_2/conv2d_19/kernel", "shape": [3, 3, 64, 64], "dtype": "float32"}, {"name": "cond_3/stega_stamp_decoder/sequential_2/conv2d_19/bias", "shape": [64], "dtype": "float32"}, {"name": "cond_3/stega_stamp_decoder/sequential_2/conv2d_20/kernel", "shape": [3, 3, 64, 128], "dtype": "float32"}, {"name": "cond_3/stega_stamp_decoder/sequential_2/conv2d_20/bias", "shape": [128], "dtype": "float32"}, {"name": "cond_3/stega_stamp_decoder/sequential_2/conv2d_21/kernel", "shape": [3, 3, 128, 128], "dtype": "float32"}, {"name": "cond_3/stega_stamp_decoder/sequential_2/conv2d_21/bias", "shape": [128], "dtype": "float32"}, {"name": "stega_stamp_decoder/sequential_2/flatten_1/Const", "shape": [2], "dtype": "int32"}, {"name": "cond_3/stega_stamp_decoder/sequential_2/dense_2/kernel", "shape": [21632, 512], "dtype": "float32"}, {"name": "cond_3/stega_stamp_decoder/sequential_2/dense_2/bias", "shape": [512], "dtype": "float32"}, {"name": "cond_3/stega_stamp_decoder/sequential_2/dense_3/kernel", "shape": [512, 100], "dtype": "float32"}, {"name": "cond_3/stega_stamp_decoder/sequential_2/dense_3/bias", "shape": [100], "dtype": "float32"}, {"name": "clip_by_value_34/Minimum/y", "shape": [], "dtype": "float32"}, {"name": "clip_by_value_34/y", "shape": [], "dtype": "float32"}, {"name": "stega_stamp_encoder_1/conv2d_transpose_5/strided_slice/stack", "shape": [1], "dtype": "int32"}, {"name": "stega_stamp_encoder_1/conv2d_transpose_5/strided_slice/stack_1", "shape": [1], "dtype": "int32"}, {"name": "stega_stamp_encoder_1/conv2d_transpose_5/strided_slice/stack_2", "shape": [1], "dtype": "int32"}, {"name": "stega_stamp_encoder_1/conv2d_transpose_5/stack/1", "shape": [], "dtype": "int32"}, {"name": "stega_stamp_encoder_1/conv2d_transpose_5/stack/2", "shape": [], "dtype": "int32"}, {"name": "stega_stamp_encoder_1/conv2d_transpose_5/stack/3", "shape": [], "dtype": "int32"}, {"name": "stega_stamp_encoder/conv2d_transpose_5/kernel", "shape": [3, 3, 32, 96], "dtype": "float32"}, {"name": "stega_stamp_encoder_1/conv2d_transpose_4/strided_slice/stack", "shape": [1], "dtype": "int32"}, {"name": "stega_stamp_encoder_1/conv2d_transpose_4/strided_slice/stack_1", "shape": [1], "dtype": "int32"}, {"name": "stega_stamp_encoder_1/conv2d_transpose_4/strided_slice/stack_2", "shape": [1], "dtype": "int32"}, {"name": "stega_stamp_encoder_1/conv2d_transpose_4/stack/1", "shape": [], "dtype": "int32"}, {"name": "stega_stamp_encoder_1/conv2d_transpose_4/stack/2", "shape": [], "dtype": "int32"}, {"name": "stega_stamp_encoder_1/conv2d_transpose_4/stack/3", "shape": [], "dtype": "int32"}, {"name": "stega_stamp_encoder/conv2d_transpose_4/kernel", "shape": [3, 3, 64, 192], "dtype": "float32"}, {"name": "stega_stamp_encoder_1/conv2d_transpose_3/strided_slice/stack", "shape": [1], "dtype": "int32"}, {"name": "stega_stamp_encoder_1/conv2d_transpose_3/strided_slice/stack_1", "shape": [1], "dtype": "int32"}, {"name": "stega_stamp_encoder_1/conv2d_transpose_3/strided_slice/stack_2", "shape": [1], "dtype": "int32"}, {"name": "stega_stamp_encoder_1/conv2d_transpose_3/stack/1", "shape": [], "dtype": "int32"}, {"name": "stega_stamp_encoder_1/conv2d_transpose_3/stack/2", "shape": [], "dtype": "int32"}, {"name": "stega_stamp_encoder_1/conv2d_transpose_3/stack/3", "shape": [], "dtype": "int32"}, {"name": "stega_stamp_encoder/conv2d_transpose_3/kernel", "shape": [3, 3, 128, 128], "dtype": "float32"}, {"name": "stega_stamp_encoder/conv2d_10/kernel", "shape": [3, 3, 64, 128], "dtype": "float32"}, {"name": "stega_stamp_encoder/conv2d_10/bias", "shape": [128], "dtype": "float32"}, {"name": "stega_stamp_encoder/sequential/conv2d_5/kernel", "shape": [3, 3, 128, 16], "dtype": "float32"}, {"name": "stega_stamp_encoder/sequential/conv2d_5/bias", "shape": [16], "dtype": "float32"}, {"name": "stega_stamp_encoder/sequential/conv2d_6/kernel", "shape": [3, 3, 16, 1], "dtype": "float32"}, {"name": "stega_stamp_encoder/sequential/conv2d_6/bias", "shape": [1], "dtype": "float32"}, {"name": "stega_stamp_encoder/conv2d_transpose_3/bias", "shape": [128], "dtype": "float32"}, {"name": "stega_stamp_encoder/conv2d_9/kernel", "shape": [3, 3, 32, 64], "dtype": "float32"}, {"name": "stega_stamp_encoder/conv2d_9/bias", "shape": [64], "dtype": "float32"}, {"name": "stega_stamp_encoder_1/concatenate_11/concat/axis", "shape": [], "dtype": "int32"}, {"name": "stega_stamp_encoder/conv2d_transpose_4/bias", "shape": [64], "dtype": "float32"}, {"name": "stega_stamp_encoder/conv2d_8/kernel", "shape": [3, 3, 32, 32], "dtype": "float32"}, {"name": "stega_stamp_encoder/conv2d_8/bias", "shape": [32], "dtype": "float32"}, {"name": "stega_stamp_encoder_1/concatenate_12/concat/axis", "shape": [], "dtype": "int32"}, {"name": "stega_stamp_encoder/conv2d_transpose_5/bias", "shape": [32], "dtype": "float32"}, {"name": "stega_stamp_encoder_1/sub/y", "shape": [], "dtype": "float32"}, {"name": "stega_stamp_encoder/dense/kernel", "shape": [100, 7500], "dtype": "float32"}, {"name": "stega_stamp_encoder/dense/bias", "shape": [7500], "dtype": "float32"}, {"name": "stega_stamp_encoder_1/reshape_1/strided_slice/stack", "shape": [1], "dtype": "int32"}, {"name": "stega_stamp_encoder_1/reshape_1/strided_slice/stack_1", "shape": [1], "dtype": "int32"}, {"name": "stega_stamp_encoder_1/reshape_1/strided_slice/stack_2", "shape": [1], "dtype": "int32"}, {"name": "stega_stamp_encoder_1/reshape_1/Reshape/shape/1", "shape": [], "dtype": "int32"}, {"name": "stega_stamp_encoder_1/reshape_1/Reshape/shape/2", "shape": [], "dtype": "int32"}, {"name": "stega_stamp_encoder_1/reshape_1/Reshape/shape/3", "shape": [], "dtype": "int32"}, {"name": "stega_stamp_encoder_1/up_sampling2d_1/mul", "shape": [2], "dtype": "int32"}, {"name": "stega_stamp_encoder_1/sub_1/y", "shape": [], "dtype": "float32"}, {"name": "stega_stamp_encoder_1/concatenate_10/concat/axis", "shape": [], "dtype": "int32"}, {"name": "stega_stamp_encoder/conv2d_7/kernel", "shape": [3, 3, 6, 32], "dtype": "float32"}, {"name": "stega_stamp_encoder/conv2d_7/bias", "shape": [32], "dtype": "float32"}, {"name": "stega_stamp_encoder_1/concatenate_13/concat/axis", "shape": [], "dtype": "int32"}, {"name": "stega_stamp_encoder/conv2d_11/kernel", "shape": [1, 1, 64, 3], "dtype": "float32"}, {"name": "stega_stamp_encoder/conv2d_11/bias", "shape": [3], "dtype": "float32"}]}]}